…
space(batchSize=12, data_augmentation=True, data_dir='/home/teacher-chen/Data/', gpu_mode=True, gpus=1, hr_train_dataset='DIV2K_train_HR', lr=0.0001, model_type='DBPNLL', nEpochs=2000, patch_size=40, prefix='tpami_residual_filter8', pretrained=False, pretrained_sr='DIV2K_train_HRcentos7DBPNLLtpami_residual_filter8_epoch_49.pth', residual=True, save_folder='weights/', seed=123, snapshots=50, start_iter=1, threads=4, upscale_factor=4)
===> Loading datasets
===> Building model  DBPNLL
---------- Networks architecture -------------
DataParallel(
  (module): Net(
    (feat0): ConvBlock(
      (conv): Conv2d(3, 256, kernel_size=(3, 3), stride=(1, 1), padding=(1, 1))
      (act): PReLU(num_parameters=1)
    )
    (feat1): ConvBlock(
      (conv): Conv2d(256, 64, kernel_size=(1, 1), stride=(1, 1))
      (act): PReLU(num_parameters=1)
    )
    (up1): UpBlock(
      (up_conv1): DeconvBlock(
        (deconv): ConvTranspose2d(64, 64, kernel_size=(8, 8), stride=(4, 4), padding=(2, 2))
        (act): PReLU(num_parameters=1)
      )
      (up_conv2): ConvBlock(
        (conv): Conv2d(64, 64, kernel_size=(8, 8), stride=(4, 4), padding=(2, 2))
        (act): PReLU(num_parameters=1)
      )
      (up_conv3): DeconvBlock(
        (deconv): ConvTranspose2d(64, 64, kernel_size=(8, 8), stride=(4, 4), padding=(2, 2))
        (act): PReLU(num_parameters=1)
      )
    )
    (down1): DownBlock(
      (down_conv1): ConvBlock(
        (conv): Conv2d(64, 64, kernel_size=(8, 8), stride=(4, 4), padding=(2, 2))
        (act): PReLU(num_parameters=1)
      )
      (down_conv2): DeconvBlock(
        (deconv): ConvTranspose2d(64, 64, kernel_size=(8, 8), stride=(4, 4), padding=(2, 2))
        (act): PReLU(num_parameters=1)
      )
      (down_conv3): ConvBlock(
        (conv): Conv2d(64, 64, kernel_size=(8, 8), stride=(4, 4), padding=(2, 2))
        (act): PReLU(num_parameters=1)
      )
    )
    (up2): UpBlock(
      (up_conv1): DeconvBlock(
        (deconv): ConvTranspose2d(64, 64, kernel_size=(8, 8), stride=(4, 4), padding=(2, 2))
        (act): PReLU(num_parameters=1)
      )
      (up_conv2): ConvBlock(
        (conv): Conv2d(64, 64, kernel_size=(8, 8), stride=(4, 4), padding=(2, 2))
        (act): PReLU(num_parameters=1)
      )
      (up_conv3): DeconvBlock(
        (deconv): ConvTranspose2d(64, 64, kernel_size=(8, 8), stride=(4, 4), padding=(2, 2))
        (act): PReLU(num_parameters=1)
      )
    )
    (down2): D_DownBlock(
      (conv): ConvBlock(
        (conv): Conv2d(128, 64, kernel_size=(1, 1), stride=(1, 1))
        (act): PReLU(num_parameters=1)
      )
      (down_conv1): ConvBlock(
        (conv): Conv2d(64, 64, kernel_size=(8, 8), stride=(4, 4), padding=(2, 2))
        (act): PReLU(num_parameters=1)
      )
      (down_conv2): DeconvBlock(
        (deconv): ConvTranspose2d(64, 64, kernel_size=(8, 8), stride=(4, 4), padding=(2, 2))
        (act): PReLU(num_parameters=1)
      )
      (down_conv3): ConvBlock(
        (conv): Conv2d(64, 64, kernel_size=(8, 8), stride=(4, 4), padding=(2, 2))
        (act): PReLU(num_parameters=1)
      )
    )
    (up3): D_UpBlock(
      (conv): ConvBlock(
        (conv): Conv2d(128, 64, kernel_size=(1, 1), stride=(1, 1))
        (act): PReLU(num_parameters=1)
      )
      (up_conv1): DeconvBlock(
        (deconv): ConvTranspose2d(64, 64, kernel_size=(8, 8), stride=(4, 4), padding=(2, 2))
        (act): PReLU(num_parameters=1)
      )
      (up_conv2): ConvBlock(
        (conv): Conv2d(64, 64, kernel_size=(8, 8), stride=(4, 4), padding=(2, 2))
        (act): PReLU(num_parameters=1)
      )
      (up_conv3): DeconvBlock(
        (deconv): ConvTranspose2d(64, 64, kernel_size=(8, 8), stride=(4, 4), padding=(2, 2))
        (act): PReLU(num_parameters=1)
      )
    )
    (down3): D_DownBlock(
      (conv): ConvBlock(
        (conv): Conv2d(192, 64, kernel_size=(1, 1), stride=(1, 1))
        (act): PReLU(num_parameters=1)
      )
      (down_conv1): ConvBlock(
        (conv): Conv2d(64, 64, kernel_size=(8, 8), stride=(4, 4), padding=(2, 2))
        (act): PReLU(num_parameters=1)
      )
      (down_conv2): DeconvBlock(
        (deconv): ConvTranspose2d(64, 64, kernel_size=(8, 8), stride=(4, 4), padding=(2, 2))
        (act): PReLU(num_parameters=1)
      )
      (down_conv3): ConvBlock(
        (conv): Conv2d(64, 64, kernel_size=(8, 8), stride=(4, 4), padding=(2, 2))
        (act): PReLU(num_parameters=1)
      )
    )
    (up4): D_UpBlock(
      (conv): ConvBlock(
        (conv): Conv2d(192, 64, kernel_size=(1, 1), stride=(1, 1))
        (act): PReLU(num_parameters=1)
      )
      (up_conv1): DeconvBlock(
        (deconv): ConvTranspose2d(64, 64, kernel_size=(8, 8), stride=(4, 4), padding=(2, 2))
        (act): PReLU(num_parameters=1)
      )
      (up_conv2): ConvBlock(
        (conv): Conv2d(64, 64, kernel_size=(8, 8), stride=(4, 4), padding=(2, 2))
        (act): PReLU(num_parameters=1)
      )
      (up_conv3): DeconvBlock(
        (deconv): ConvTranspose2d(64, 64, kernel_size=(8, 8), stride=(4, 4), padding=(2, 2))
        (act): PReLU(num_parameters=1)
      )
    )
    (down4): D_DownBlock(
      (conv): ConvBlock(
        (conv): Conv2d(256, 64, kernel_size=(1, 1), stride=(1, 1))
        (act): PReLU(num_parameters=1)
      )
      (down_conv1): ConvBlock(
        (conv): Conv2d(64, 64, kernel_size=(8, 8), stride=(4, 4), padding=(2, 2))
        (act): PReLU(num_parameters=1)
      )
      (down_conv2): DeconvBlock(
        (deconv): ConvTranspose2d(64, 64, kernel_size=(8, 8), stride=(4, 4), padding=(2, 2))
        (act): PReLU(num_parameters=1)
      )
      (down_conv3): ConvBlock(
        (conv): Conv2d(64, 64, kernel_size=(8, 8), stride=(4, 4), padding=(2, 2))
        (act): PReLU(num_parameters=1)
      )
    )
    (up5): D_UpBlock(
      (conv): ConvBlock(
        (conv): Conv2d(256, 64, kernel_size=(1, 1), stride=(1, 1))
        (act): PReLU(num_parameters=1)
      )
      (up_conv1): DeconvBlock(
        (deconv): ConvTranspose2d(64, 64, kernel_size=(8, 8), stride=(4, 4), padding=(2, 2))
        (act): PReLU(num_parameters=1)
      )
      (up_conv2): ConvBlock(
        (conv): Conv2d(64, 64, kernel_size=(8, 8), stride=(4, 4), padding=(2, 2))
        (act): PReLU(num_parameters=1)
      )
      (up_conv3): DeconvBlock(
        (deconv): ConvTranspose2d(64, 64, kernel_size=(8, 8), stride=(4, 4), padding=(2, 2))
        (act): PReLU(num_parameters=1)
      )
    )
    (down5): D_DownBlock(
      (conv): ConvBlock(
        (conv): Conv2d(320, 64, kernel_size=(1, 1), stride=(1, 1))
        (act): PReLU(num_parameters=1)
      )
      (down_conv1): ConvBlock(
        (conv): Conv2d(64, 64, kernel_size=(8, 8), stride=(4, 4), padding=(2, 2))
        (act): PReLU(num_parameters=1)
      )
      (down_conv2): DeconvBlock(
        (deconv): ConvTranspose2d(64, 64, kernel_size=(8, 8), stride=(4, 4), padding=(2, 2))
        (act): PReLU(num_parameters=1)
      )
      (down_conv3): ConvBlock(
        (conv): Conv2d(64, 64, kernel_size=(8, 8), stride=(4, 4), padding=(2, 2))
        (act): PReLU(num_parameters=1)
      )
    )
    (up6): D_UpBlock(
      (conv): ConvBlock(
        (conv): Conv2d(320, 64, kernel_size=(1, 1), stride=(1, 1))
        (act): PReLU(num_parameters=1)
      )
      (up_conv1): DeconvBlock(
        (deconv): ConvTranspose2d(64, 64, kernel_size=(8, 8), stride=(4, 4), padding=(2, 2))
        (act): PReLU(num_parameters=1)
      )
      (up_conv2): ConvBlock(
        (conv): Conv2d(64, 64, kernel_size=(8, 8), stride=(4, 4), padding=(2, 2))
        (act): PReLU(num_parameters=1)
      )
      (up_conv3): DeconvBlock(
        (deconv): ConvTranspose2d(64, 64, kernel_size=(8, 8), stride=(4, 4), padding=(2, 2))
        (act): PReLU(num_parameters=1)
      )
    )
    (down6): D_DownBlock(
      (conv): ConvBlock(
        (conv): Conv2d(384, 64, kernel_size=(1, 1), stride=(1, 1))
        (act): PReLU(num_parameters=1)
      )
      (down_conv1): ConvBlock(
        (conv): Conv2d(64, 64, kernel_size=(8, 8), stride=(4, 4), padding=(2, 2))
        (act): PReLU(num_parameters=1)
      )
      (down_conv2): DeconvBlock(
        (deconv): ConvTranspose2d(64, 64, kernel_size=(8, 8), stride=(4, 4), padding=(2, 2))
        (act): PReLU(num_parameters=1)
      )
      (down_conv3): ConvBlock(
        (conv): Conv2d(64, 64, kernel_size=(8, 8), stride=(4, 4), padding=(2, 2))
        (act): PReLU(num_parameters=1)
      )
    )
    (up7): D_UpBlock(
      (conv): ConvBlock(
        (conv): Conv2d(384, 64, kernel_size=(1, 1), stride=(1, 1))
        (act): PReLU(num_parameters=1)
      )
      (up_conv1): DeconvBlock(
        (deconv): ConvTranspose2d(64, 64, kernel_size=(8, 8), stride=(4, 4), padding=(2, 2))
        (act): PReLU(num_parameters=1)
      )
      (up_conv2): ConvBlock(
        (conv): Conv2d(64, 64, kernel_size=(8, 8), stride=(4, 4), padding=(2, 2))
        (act): PReLU(num_parameters=1)
      )
      (up_conv3): DeconvBlock(
        (deconv): ConvTranspose2d(64, 64, kernel_size=(8, 8), stride=(4, 4), padding=(2, 2))
        (act): PReLU(num_parameters=1)
      )
    )
    (down7): D_DownBlock(
      (conv): ConvBlock(
        (conv): Conv2d(448, 64, kernel_size=(1, 1), stride=(1, 1))
        (act): PReLU(num_parameters=1)
      )
      (down_conv1): ConvBlock(
        (conv): Conv2d(64, 64, kernel_size=(8, 8), stride=(4, 4), padding=(2, 2))
        (act): PReLU(num_parameters=1)
      )
      (down_conv2): DeconvBlock(
        (deconv): ConvTranspose2d(64, 64, kernel_size=(8, 8), stride=(4, 4), padding=(2, 2))
        (act): PReLU(num_parameters=1)
      )
      (down_conv3): ConvBlock(
        (conv): Conv2d(64, 64, kernel_size=(8, 8), stride=(4, 4), padding=(2, 2))
        (act): PReLU(num_parameters=1)
      )
    )
    (up8): D_UpBlock(
      (conv): ConvBlock(
        (conv): Conv2d(448, 64, kernel_size=(1, 1), stride=(1, 1))
        (act): PReLU(num_parameters=1)
      )
      (up_conv1): DeconvBlock(
        (deconv): ConvTranspose2d(64, 64, kernel_size=(8, 8), stride=(4, 4), padding=(2, 2))
        (act): PReLU(num_parameters=1)
      )
      (up_conv2): ConvBlock(
        (conv): Conv2d(64, 64, kernel_size=(8, 8), stride=(4, 4), padding=(2, 2))
        (act): PReLU(num_parameters=1)
      )
      (up_conv3): DeconvBlock(
        (deconv): ConvTranspose2d(64, 64, kernel_size=(8, 8), stride=(4, 4), padding=(2, 2))
        (act): PReLU(num_parameters=1)
      )
    )
    (down8): D_DownBlock(
      (conv): ConvBlock(
        (conv): Conv2d(512, 64, kernel_size=(1, 1), stride=(1, 1))
        (act): PReLU(num_parameters=1)
      )
      (down_conv1): ConvBlock(
        (conv): Conv2d(64, 64, kernel_size=(8, 8), stride=(4, 4), padding=(2, 2))
        (act): PReLU(num_parameters=1)
      )
      (down_conv2): DeconvBlock(
        (deconv): ConvTranspose2d(64, 64, kernel_size=(8, 8), stride=(4, 4), padding=(2, 2))
        (act): PReLU(num_parameters=1)
      )
      (down_conv3): ConvBlock(
        (conv): Conv2d(64, 64, kernel_size=(8, 8), stride=(4, 4), padding=(2, 2))
        (act): PReLU(num_parameters=1)
      )
    )
    (up9): D_UpBlock(
      (conv): ConvBlock(
        (conv): Conv2d(512, 64, kernel_size=(1, 1), stride=(1, 1))
        (act): PReLU(num_parameters=1)
      )
      (up_conv1): DeconvBlock(
        (deconv): ConvTranspose2d(64, 64, kernel_size=(8, 8), stride=(4, 4), padding=(2, 2))
        (act): PReLU(num_parameters=1)
      )
      (up_conv2): ConvBlock(
        (conv): Conv2d(64, 64, kernel_size=(8, 8), stride=(4, 4), padding=(2, 2))
        (act): PReLU(num_parameters=1)
      )
      (up_conv3): DeconvBlock(
        (deconv): ConvTranspose2d(64, 64, kernel_size=(8, 8), stride=(4, 4), padding=(2, 2))
        (act): PReLU(num_parameters=1)
      )
    )
    (down9): D_DownBlock(
      (conv): ConvBlock(
        (conv): Conv2d(576, 64, kernel_size=(1, 1), stride=(1, 1))
        (act): PReLU(num_parameters=1)
      )
      (down_conv1): ConvBlock(
        (conv): Conv2d(64, 64, kernel_size=(8, 8), stride=(4, 4), padding=(2, 2))
        (act): PReLU(num_parameters=1)
      )
      (down_conv2): DeconvBlock(
        (deconv): ConvTranspose2d(64, 64, kernel_size=(8, 8), stride=(4, 4), padding=(2, 2))
        (act): PReLU(num_parameters=1)
      )
      (down_conv3): ConvBlock(
        (conv): Conv2d(64, 64, kernel_size=(8, 8), stride=(4, 4), padding=(2, 2))
        (act): PReLU(num_parameters=1)
      )
    )
    (output_conv): Conv2d(576, 48, kernel_size=(1, 1), stride=(1, 1))
    (ps): PixelShuffle(upscale_factor=4)
  )
)
Total number of parameters: 14535159
----------------------------------------------
===> Epoch[1](1/67): Loss: 0.2066 || Timer: 4.1678 sec.
===> Epoch[1](2/67): Loss: 0.1476 || Timer: 0.7928 sec.
===> Epoch[1](3/67): Loss: 0.1212 || Timer: 0.7929 sec.
===> Epoch[1](4/67): Loss: 0.0847 || Timer: 0.7921 sec.
===> Epoch[1](5/67): Loss: 0.0825 || Timer: 0.7932 sec.
…
