…
set='DIV2K_train_HR', load_pretrained=True, load_pretrained_D=True, lr=0.01, model_type='DBPNLL', nEpochs=2000, patch_size=60, prefix='PIRM_VGG', pretrained=False, pretrained_D='centos7DBPNLLPIRM_VGGVGG_epoch_Discriminator_124.pth', pretrained_iter=50, pretrained_sr='centos7DBPNLLPIRM_VGGVGG_epoch_199.pth', save_folder='weights/', seed=123, snapshots=25, start_iter=199, threads=4, upscale_factor=4, w1=0.01, w2=0.1, w3=0.001, w4=10)
===> Loading datasets
===> Building model  DBPNLL
---------- Generator architecture -------------
DataParallel(
  (module): Net(
    (feat0): ConvBlock(
      (conv): Conv2d(3, 256, kernel_size=(3, 3), stride=(1, 1), padding=(1, 1))
      (act): PReLU(num_parameters=1)
    )
    (feat1): ConvBlock(
      (conv): Conv2d(256, 64, kernel_size=(1, 1), stride=(1, 1))
      (act): PReLU(num_parameters=1)
    )
    (up1): UpBlock(
      (up_conv1): DeconvBlock(
        (deconv): ConvTranspose2d(64, 64, kernel_size=(8, 8), stride=(4, 4), padding=(2, 2))
        (act): PReLU(num_parameters=1)
      )
      (up_conv2): ConvBlock(
        (conv): Conv2d(64, 64, kernel_size=(8, 8), stride=(4, 4), padding=(2, 2))
        (act): PReLU(num_parameters=1)
      )
      (up_conv3): DeconvBlock(
        (deconv): ConvTranspose2d(64, 64, kernel_size=(8, 8), stride=(4, 4), padding=(2, 2))
        (act): PReLU(num_parameters=1)
      )
    )
    (down1): DownBlock(
      (down_conv1): ConvBlock(
        (conv): Conv2d(64, 64, kernel_size=(8, 8), stride=(4, 4), padding=(2, 2))
        (act): PReLU(num_parameters=1)
      )
      (down_conv2): DeconvBlock(
        (deconv): ConvTranspose2d(64, 64, kernel_size=(8, 8), stride=(4, 4), padding=(2, 2))
        (act): PReLU(num_parameters=1)
      )
      (down_conv3): ConvBlock(
        (conv): Conv2d(64, 64, kernel_size=(8, 8), stride=(4, 4), padding=(2, 2))
        (act): PReLU(num_parameters=1)
      )
    )
    (up2): UpBlock(
      (up_conv1): DeconvBlock(
        (deconv): ConvTranspose2d(64, 64, kernel_size=(8, 8), stride=(4, 4), padding=(2, 2))
        (act): PReLU(num_parameters=1)
      )
      (up_conv2): ConvBlock(
        (conv): Conv2d(64, 64, kernel_size=(8, 8), stride=(4, 4), padding=(2, 2))
        (act): PReLU(num_parameters=1)
      )
      (up_conv3): DeconvBlock(
        (deconv): ConvTranspose2d(64, 64, kernel_size=(8, 8), stride=(4, 4), padding=(2, 2))
        (act): PReLU(num_parameters=1)
      )
    )
    (down2): D_DownBlock(
      (conv): ConvBlock(
        (conv): Conv2d(128, 64, kernel_size=(1, 1), stride=(1, 1))
        (act): PReLU(num_parameters=1)
      )
      (down_conv1): ConvBlock(
        (conv): Conv2d(64, 64, kernel_size=(8, 8), stride=(4, 4), padding=(2, 2))
        (act): PReLU(num_parameters=1)
      )
      (down_conv2): DeconvBlock(
        (deconv): ConvTranspose2d(64, 64, kernel_size=(8, 8), stride=(4, 4), padding=(2, 2))
        (act): PReLU(num_parameters=1)
      )
      (down_conv3): ConvBlock(
        (conv): Conv2d(64, 64, kernel_size=(8, 8), stride=(4, 4), padding=(2, 2))
        (act): PReLU(num_parameters=1)
      )
    )
    (up3): D_UpBlock(
      (conv): ConvBlock(
        (conv): Conv2d(128, 64, kernel_size=(1, 1), stride=(1, 1))
        (act): PReLU(num_parameters=1)
      )
      (up_conv1): DeconvBlock(
        (deconv): ConvTranspose2d(64, 64, kernel_size=(8, 8), stride=(4, 4), padding=(2, 2))
        (act): PReLU(num_parameters=1)
      )
      (up_conv2): ConvBlock(
        (conv): Conv2d(64, 64, kernel_size=(8, 8), stride=(4, 4), padding=(2, 2))
        (act): PReLU(num_parameters=1)
      )
      (up_conv3): DeconvBlock(
        (deconv): ConvTranspose2d(64, 64, kernel_size=(8, 8), stride=(4, 4), padding=(2, 2))
        (act): PReLU(num_parameters=1)
      )
    )
    (down3): D_DownBlock(
      (conv): ConvBlock(
        (conv): Conv2d(192, 64, kernel_size=(1, 1), stride=(1, 1))
        (act): PReLU(num_parameters=1)
      )
      (down_conv1): ConvBlock(
        (conv): Conv2d(64, 64, kernel_size=(8, 8), stride=(4, 4), padding=(2, 2))
        (act): PReLU(num_parameters=1)
      )
      (down_conv2): DeconvBlock(
        (deconv): ConvTranspose2d(64, 64, kernel_size=(8, 8), stride=(4, 4), padding=(2, 2))
        (act): PReLU(num_parameters=1)
      )
      (down_conv3): ConvBlock(
        (conv): Conv2d(64, 64, kernel_size=(8, 8), stride=(4, 4), padding=(2, 2))
        (act): PReLU(num_parameters=1)
      )
    )
    (up4): D_UpBlock(
      (conv): ConvBlock(
        (conv): Conv2d(192, 64, kernel_size=(1, 1), stride=(1, 1))
        (act): PReLU(num_parameters=1)
      )
      (up_conv1): DeconvBlock(
        (deconv): ConvTranspose2d(64, 64, kernel_size=(8, 8), stride=(4, 4), padding=(2, 2))
        (act): PReLU(num_parameters=1)
      )
      (up_conv2): ConvBlock(
        (conv): Conv2d(64, 64, kernel_size=(8, 8), stride=(4, 4), padding=(2, 2))
        (act): PReLU(num_parameters=1)
      )
      (up_conv3): DeconvBlock(
        (deconv): ConvTranspose2d(64, 64, kernel_size=(8, 8), stride=(4, 4), padding=(2, 2))
        (act): PReLU(num_parameters=1)
      )
    )
    (down4): D_DownBlock(
      (conv): ConvBlock(
        (conv): Conv2d(256, 64, kernel_size=(1, 1), stride=(1, 1))
        (act): PReLU(num_parameters=1)
      )
      (down_conv1): ConvBlock(
        (conv): Conv2d(64, 64, kernel_size=(8, 8), stride=(4, 4), padding=(2, 2))
        (act): PReLU(num_parameters=1)
      )
      (down_conv2): DeconvBlock(
        (deconv): ConvTranspose2d(64, 64, kernel_size=(8, 8), stride=(4, 4), padding=(2, 2))
        (act): PReLU(num_parameters=1)
      )
      (down_conv3): ConvBlock(
        (conv): Conv2d(64, 64, kernel_size=(8, 8), stride=(4, 4), padding=(2, 2))
        (act): PReLU(num_parameters=1)
      )
    )
    (up5): D_UpBlock(
      (conv): ConvBlock(
        (conv): Conv2d(256, 64, kernel_size=(1, 1), stride=(1, 1))
        (act): PReLU(num_parameters=1)
      )
      (up_conv1): DeconvBlock(
        (deconv): ConvTranspose2d(64, 64, kernel_size=(8, 8), stride=(4, 4), padding=(2, 2))
        (act): PReLU(num_parameters=1)
      )
      (up_conv2): ConvBlock(
        (conv): Conv2d(64, 64, kernel_size=(8, 8), stride=(4, 4), padding=(2, 2))
        (act): PReLU(num_parameters=1)
      )
      (up_conv3): DeconvBlock(
        (deconv): ConvTranspose2d(64, 64, kernel_size=(8, 8), stride=(4, 4), padding=(2, 2))
        (act): PReLU(num_parameters=1)
      )
    )
    (down5): D_DownBlock(
      (conv): ConvBlock(
        (conv): Conv2d(320, 64, kernel_size=(1, 1), stride=(1, 1))
        (act): PReLU(num_parameters=1)
      )
      (down_conv1): ConvBlock(
        (conv): Conv2d(64, 64, kernel_size=(8, 8), stride=(4, 4), padding=(2, 2))
        (act): PReLU(num_parameters=1)
      )
      (down_conv2): DeconvBlock(
        (deconv): ConvTranspose2d(64, 64, kernel_size=(8, 8), stride=(4, 4), padding=(2, 2))
        (act): PReLU(num_parameters=1)
      )
      (down_conv3): ConvBlock(
        (conv): Conv2d(64, 64, kernel_size=(8, 8), stride=(4, 4), padding=(2, 2))
        (act): PReLU(num_parameters=1)
      )
    )
    (up6): D_UpBlock(
      (conv): ConvBlock(
        (conv): Conv2d(320, 64, kernel_size=(1, 1), stride=(1, 1))
        (act): PReLU(num_parameters=1)
      )
      (up_conv1): DeconvBlock(
        (deconv): ConvTranspose2d(64, 64, kernel_size=(8, 8), stride=(4, 4), padding=(2, 2))
        (act): PReLU(num_parameters=1)
      )
      (up_conv2): ConvBlock(
        (conv): Conv2d(64, 64, kernel_size=(8, 8), stride=(4, 4), padding=(2, 2))
        (act): PReLU(num_parameters=1)
      )
      (up_conv3): DeconvBlock(
        (deconv): ConvTranspose2d(64, 64, kernel_size=(8, 8), stride=(4, 4), padding=(2, 2))
        (act): PReLU(num_parameters=1)
      )
    )
    (down6): D_DownBlock(
      (conv): ConvBlock(
        (conv): Conv2d(384, 64, kernel_size=(1, 1), stride=(1, 1))
        (act): PReLU(num_parameters=1)
      )
      (down_conv1): ConvBlock(
        (conv): Conv2d(64, 64, kernel_size=(8, 8), stride=(4, 4), padding=(2, 2))
        (act): PReLU(num_parameters=1)
      )
      (down_conv2): DeconvBlock(
        (deconv): ConvTranspose2d(64, 64, kernel_size=(8, 8), stride=(4, 4), padding=(2, 2))
        (act): PReLU(num_parameters=1)
      )
      (down_conv3): ConvBlock(
        (conv): Conv2d(64, 64, kernel_size=(8, 8), stride=(4, 4), padding=(2, 2))
        (act): PReLU(num_parameters=1)
      )
    )
    (up7): D_UpBlock(
      (conv): ConvBlock(
        (conv): Conv2d(384, 64, kernel_size=(1, 1), stride=(1, 1))
        (act): PReLU(num_parameters=1)
      )
      (up_conv1): DeconvBlock(
        (deconv): ConvTranspose2d(64, 64, kernel_size=(8, 8), stride=(4, 4), padding=(2, 2))
        (act): PReLU(num_parameters=1)
      )
      (up_conv2): ConvBlock(
        (conv): Conv2d(64, 64, kernel_size=(8, 8), stride=(4, 4), padding=(2, 2))
        (act): PReLU(num_parameters=1)
      )
      (up_conv3): DeconvBlock(
        (deconv): ConvTranspose2d(64, 64, kernel_size=(8, 8), stride=(4, 4), padding=(2, 2))
        (act): PReLU(num_parameters=1)
      )
    )
    (down7): D_DownBlock(
      (conv): ConvBlock(
        (conv): Conv2d(448, 64, kernel_size=(1, 1), stride=(1, 1))
        (act): PReLU(num_parameters=1)
      )
      (down_conv1): ConvBlock(
        (conv): Conv2d(64, 64, kernel_size=(8, 8), stride=(4, 4), padding=(2, 2))
        (act): PReLU(num_parameters=1)
      )
      (down_conv2): DeconvBlock(
        (deconv): ConvTranspose2d(64, 64, kernel_size=(8, 8), stride=(4, 4), padding=(2, 2))
        (act): PReLU(num_parameters=1)
      )
      (down_conv3): ConvBlock(
        (conv): Conv2d(64, 64, kernel_size=(8, 8), stride=(4, 4), padding=(2, 2))
        (act): PReLU(num_parameters=1)
      )
    )
    (up8): D_UpBlock(
      (conv): ConvBlock(
        (conv): Conv2d(448, 64, kernel_size=(1, 1), stride=(1, 1))
        (act): PReLU(num_parameters=1)
      )
      (up_conv1): DeconvBlock(
        (deconv): ConvTranspose2d(64, 64, kernel_size=(8, 8), stride=(4, 4), padding=(2, 2))
        (act): PReLU(num_parameters=1)
      )
      (up_conv2): ConvBlock(
        (conv): Conv2d(64, 64, kernel_size=(8, 8), stride=(4, 4), padding=(2, 2))
        (act): PReLU(num_parameters=1)
      )
      (up_conv3): DeconvBlock(
        (deconv): ConvTranspose2d(64, 64, kernel_size=(8, 8), stride=(4, 4), padding=(2, 2))
        (act): PReLU(num_parameters=1)
      )
    )
    (down8): D_DownBlock(
      (conv): ConvBlock(
        (conv): Conv2d(512, 64, kernel_size=(1, 1), stride=(1, 1))
        (act): PReLU(num_parameters=1)
      )
      (down_conv1): ConvBlock(
        (conv): Conv2d(64, 64, kernel_size=(8, 8), stride=(4, 4), padding=(2, 2))
        (act): PReLU(num_parameters=1)
      )
      (down_conv2): DeconvBlock(
        (deconv): ConvTranspose2d(64, 64, kernel_size=(8, 8), stride=(4, 4), padding=(2, 2))
        (act): PReLU(num_parameters=1)
      )
      (down_conv3): ConvBlock(
        (conv): Conv2d(64, 64, kernel_size=(8, 8), stride=(4, 4), padding=(2, 2))
        (act): PReLU(num_parameters=1)
      )
    )
    (up9): D_UpBlock(
      (conv): ConvBlock(
        (conv): Conv2d(512, 64, kernel_size=(1, 1), stride=(1, 1))
        (act): PReLU(num_parameters=1)
      )
      (up_conv1): DeconvBlock(
        (deconv): ConvTranspose2d(64, 64, kernel_size=(8, 8), stride=(4, 4), padding=(2, 2))
        (act): PReLU(num_parameters=1)
      )
      (up_conv2): ConvBlock(
        (conv): Conv2d(64, 64, kernel_size=(8, 8), stride=(4, 4), padding=(2, 2))
        (act): PReLU(num_parameters=1)
      )
      (up_conv3): DeconvBlock(
        (deconv): ConvTranspose2d(64, 64, kernel_size=(8, 8), stride=(4, 4), padding=(2, 2))
        (act): PReLU(num_parameters=1)
      )
    )
    (down9): D_DownBlock(
      (conv): ConvBlock(
        (conv): Conv2d(576, 64, kernel_size=(1, 1), stride=(1, 1))
        (act): PReLU(num_parameters=1)
      )
      (down_conv1): ConvBlock(
        (conv): Conv2d(64, 64, kernel_size=(8, 8), stride=(4, 4), padding=(2, 2))
        (act): PReLU(num_parameters=1)
      )
      (down_conv2): DeconvBlock(
        (deconv): ConvTranspose2d(64, 64, kernel_size=(8, 8), stride=(4, 4), padding=(2, 2))
        (act): PReLU(num_parameters=1)
      )
      (down_conv3): ConvBlock(
        (conv): Conv2d(64, 64, kernel_size=(8, 8), stride=(4, 4), padding=(2, 2))
        (act): PReLU(num_parameters=1)
      )
    )
    (up10): D_UpBlock(
      (conv): ConvBlock(
        (conv): Conv2d(576, 64, kernel_size=(1, 1), stride=(1, 1))
        (act): PReLU(num_parameters=1)
      )
      (up_conv1): DeconvBlock(
        (deconv): ConvTranspose2d(64, 64, kernel_size=(8, 8), stride=(4, 4), padding=(2, 2))
        (act): PReLU(num_parameters=1)
      )
      (up_conv2): ConvBlock(
        (conv): Conv2d(64, 64, kernel_size=(8, 8), stride=(4, 4), padding=(2, 2))
        (act): PReLU(num_parameters=1)
      )
      (up_conv3): DeconvBlock(
        (deconv): ConvTranspose2d(64, 64, kernel_size=(8, 8), stride=(4, 4), padding=(2, 2))
        (act): PReLU(num_parameters=1)
      )
    )
    (output_conv1): ConvBlock(
      (conv): Conv2d(576, 64, kernel_size=(1, 1), stride=(1, 1))
    )
    (output_conv2): ConvBlock(
      (conv): Conv2d(64, 48, kernel_size=(8, 8), stride=(4, 4), padding=(2, 2))
    )
    (ps): PixelShuffle(upscale_factor=4)
  )
)
Total number of parameters: 15564603
---------- Discriminator architecture ---------
DataParallel(
  (module): Discriminator(
    (input_conv): ConvBlock(
      (conv): Conv2d(3, 64, kernel_size=(3, 3), stride=(1, 1), padding=(1, 1))
      (act): LeakyReLU(negative_slope=0.2, inplace)
    )
    (conv_blocks): Sequential(
      (0): ConvBlock(
        (conv): Conv2d(64, 64, kernel_size=(3, 3), stride=(2, 2), padding=(1, 1))
        (bn): BatchNorm2d(64, eps=1e-05, momentum=0.1, affine=True, track_running_stats=True)
        (act): LeakyReLU(negative_slope=0.2, inplace)
      )
      (1): ConvBlock(
        (conv): Conv2d(64, 128, kernel_size=(3, 3), stride=(1, 1), padding=(1, 1))
        (bn): BatchNorm2d(128, eps=1e-05, momentum=0.1, affine=True, track_running_stats=True)
        (act): LeakyReLU(negative_slope=0.2, inplace)
      )
      (2): ConvBlock(
        (conv): Conv2d(128, 128, kernel_size=(3, 3), stride=(2, 2), padding=(1, 1))
        (bn): BatchNorm2d(128, eps=1e-05, momentum=0.1, affine=True, track_running_stats=True)
        (act): LeakyReLU(negative_slope=0.2, inplace)
      )
      (3): ConvBlock(
        (conv): Conv2d(128, 256, kernel_size=(3, 3), stride=(1, 1), padding=(1, 1))
        (bn): BatchNorm2d(256, eps=1e-05, momentum=0.1, affine=True, track_running_stats=True)
        (act): LeakyReLU(negative_slope=0.2, inplace)
      )
      (4): ConvBlock(
        (conv): Conv2d(256, 256, kernel_size=(3, 3), stride=(2, 2), padding=(1, 1))
        (bn): BatchNorm2d(256, eps=1e-05, momentum=0.1, affine=True, track_running_stats=True)
        (act): LeakyReLU(negative_slope=0.2, inplace)
      )
      (5): ConvBlock(
        (conv): Conv2d(256, 512, kernel_size=(3, 3), stride=(1, 1), padding=(1, 1))
        (bn): BatchNorm2d(512, eps=1e-05, momentum=0.1, affine=True, track_running_stats=True)
        (act): LeakyReLU(negative_slope=0.2, inplace)
      )
      (6): ConvBlock(
        (conv): Conv2d(512, 512, kernel_size=(3, 3), stride=(2, 2), padding=(1, 1))
        (bn): BatchNorm2d(512, eps=1e-05, momentum=0.1, affine=True, track_running_stats=True)
        (act): LeakyReLU(negative_slope=0.2, inplace)
      )
    )
    (dense_layers): Sequential(
      (0): DenseBlock(
        (fc): Linear(in_features=115200, out_features=1024, bias=True)
        (act): LeakyReLU(negative_slope=0.2, inplace)
      )
      (1): DenseBlock(
        (fc): Linear(in_features=1024, out_features=1, bias=True)
        (act): Sigmoid()
      )
    )
  )
)
Total number of parameters: 122655937
-----------------------------------------------
Pre-trained SR model is loaded.
Pre-trained Discriminator model is loaded.
Epoch: [199] [   1/ 134] G_loss: 0.37682235, D_loss: 0.07362872, mse:0.00270374, perceptual: 0.20038164, style: 0.17373699, adv: 0.00000000
Epoch: [199] [   2/ 134] G_loss: 12449226140546410479616.00000000, D_loss: 27.63102150, mse:4530560512.00000000, perceptual: 138747281408.00000000, style: 12449226140546410479616.00000000, adv: 0.00000000
…
