…
    which_model_G: RRDBNet_WN
    norm_type: None
    mode: CNA
    nf: 64
    nb: 23
    in_nc: 3
    out_nc: 3
    gc: 32
    group: 1
    scale: 4
  ]
  is_train: False

19-03-02 23:04:26.398 - INFO: Dataset [LRHRDataset - ESRGAN_WN_x4_DF2K] is created.
19-03-02 23:04:26.399 - INFO: Number of test images in [ESRGAN_WN_x4_DF2K]: 5
19-03-02 23:04:47.961 - INFO: Loading pretrained model for G [../../model/wn_2up_esrgan.pth] ...
19-03-02 23:04:48.411 - INFO: Network G structure: DataParallel - RRDBNet_WN, with parameters: 17,007,494
19-03-02 23:04:48.412 - INFO: RRDBNet_WN(
  (model): Sequential(
    (0): Conv2d(3, 64, kernel_size=(3, 3), stride=(1, 1), padding=(1, 1))
    (1): Identity + 
    |Sequential(
    |  (0): RRDB_WN(
    |    (RDB1): ResidualDenseBlock_5C_WN(
    |      (conv1): Sequential(
    |        (0): Conv2d(64, 32, kernel_size=(3, 3), stride=(1, 1), padding=(1, 1))
    |        (1): LeakyReLU(negative_slope=0.2, inplace)
    |      )
    |      (conv2): Sequential(
    |        (0): Conv2d(96, 32, kernel_size=(3, 3), stride=(1, 1), padding=(1, 1))
    |        (1): LeakyReLU(negative_slope=0.2, inplace)
    |      )
    |      (conv3): Sequential(
    |        (0): Conv2d(128, 32, kernel_size=(3, 3), stride=(1, 1), padding=(1, 1))
    |        (1): LeakyReLU(negative_slope=0.2, inplace)
    |      )
    |      (conv4): Sequential(
    |        (0): Conv2d(160, 32, kernel_size=(3, 3), stride=(1, 1), padding=(1, 1))
    |        (1): LeakyReLU(negative_slope=0.2, inplace)
    |      )
    |      (conv5): Sequential(
    |        (0): Conv2d(192, 64, kernel_size=(3, 3), stride=(1, 1), padding=(1, 1))
    |      )
    |    )
    |    (RDB2): ResidualDenseBlock_5C_WN(
    |      (conv1): Sequential(
    |        (0): Conv2d(64, 32, kernel_size=(3, 3), stride=(1, 1), padding=(1, 1))
    |        (1): LeakyReLU(negative_slope=0.2, inplace)
    |      )
    |      (conv2): Sequential(
    |        (0): Conv2d(96, 32, kernel_size=(3, 3), stride=(1, 1), padding=(1, 1))
    |        (1): LeakyReLU(negative_slope=0.2, inplace)
    |      )
    |      (conv3): Sequential(
    |        (0): Conv2d(128, 32, kernel_size=(3, 3), stride=(1, 1), padding=(1, 1))
    |        (1): LeakyReLU(negative_slope=0.2, inplace)
    |      )
    |      (conv4): Sequential(
    |        (0): Conv2d(160, 32, kernel_size=(3, 3), stride=(1, 1), padding=(1, 1))
    |        (1): LeakyReLU(negative_slope=0.2, inplace)
    |      )
    |      (conv5): Sequential(
    |        (0): Conv2d(192, 64, kernel_size=(3, 3), stride=(1, 1), padding=(1, 1))
    |      )
    |    )
    |    (RDB3): ResidualDenseBlock_5C_WN(
    |      (conv1): Sequential(
    |        (0): Conv2d(64, 32, kernel_size=(3, 3), stride=(1, 1), padding=(1, 1))
    |        (1): LeakyReLU(negative_slope=0.2, inplace)
    |      )
    |      (conv2): Sequential(
    |        (0): Conv2d(96, 32, kernel_size=(3, 3), stride=(1, 1), padding=(1, 1))
    |        (1): LeakyReLU(negative_slope=0.2, inplace)
    |      )
    |      (conv3): Sequential(
    |        (0): Conv2d(128, 32, kernel_size=(3, 3), stride=(1, 1), padding=(1, 1))
    |        (1): LeakyReLU(negative_slope=0.2, inplace)
    |      )
    |      (conv4): Sequential(
    |        (0): Conv2d(160, 32, kernel_size=(3, 3), stride=(1, 1), padding=(1, 1))
    |        (1): LeakyReLU(negative_slope=0.2, inplace)
    |      )
    |      (conv5): Sequential(
    |        (0): Conv2d(192, 64, kernel_size=(3, 3), stride=(1, 1), padding=(1, 1))
    |      )
    |    )
    |  )
    |  (1): RRDB_WN(
    |    (RDB1): ResidualDenseBlock_5C_WN(
    |      (conv1): Sequential(
    |        (0): Conv2d(64, 32, kernel_size=(3, 3), stride=(1, 1), padding=(1, 1))
    |        (1): LeakyReLU(negative_slope=0.2, inplace)
    |      )
    |      (conv2): Sequential(
    |        (0): Conv2d(96, 32, kernel_size=(3, 3), stride=(1, 1), padding=(1, 1))
    |        (1): LeakyReLU(negative_slope=0.2, inplace)
    |      )
    |      (conv3): Sequential(
    |        (0): Conv2d(128, 32, kernel_size=(3, 3), stride=(1, 1), padding=(1, 1))
    |        (1): LeakyReLU(negative_slope=0.2, inplace)
    |      )
    |      (conv4): Sequential(
    |        (0): Conv2d(160, 32, kernel_size=(3, 3), stride=(1, 1), padding=(1, 1))
    |        (1): LeakyReLU(negative_slope=0.2, inplace)
    |      )
    |      (conv5): Sequential(
    |        (0): Conv2d(192, 64, kernel_size=(3, 3), stride=(1, 1), padding=(1, 1))
    |      )
    |    )
    |    (RDB2): ResidualDenseBlock_5C_WN(
    |      (conv1): Sequential(
    |        (0): Conv2d(64, 32, kernel_size=(3, 3), stride=(1, 1), padding=(1, 1))
    |        (1): LeakyReLU(negative_slope=0.2, inplace)
    |      )
    |      (conv2): Sequential(
    |        (0): Conv2d(96, 32, kernel_size=(3, 3), stride=(1, 1), padding=(1, 1))
    |        (1): LeakyReLU(negative_slope=0.2, inplace)
    |      )
    |      (conv3): Sequential(
    |        (0): Conv2d(128, 32, kernel_size=(3, 3), stride=(1, 1), padding=(1, 1))
    |        (1): LeakyReLU(negative_slope=0.2, inplace)
    |      )
    |      (conv4): Sequential(
    |        (0): Conv2d(160, 32, kernel_size=(3, 3), stride=(1, 1), padding=(1, 1))
    |        (1): LeakyReLU(negative_slope=0.2, inplace)
    |      )
    |      (conv5): Sequential(
    |        (0): Conv2d(192, 64, kernel_size=(3, 3), stride=(1, 1), padding=(1, 1))
    |      )
    |    )
    |    (RDB3): ResidualDenseBlock_5C_WN(
    |      (conv1): Sequential(
    |        (0): Conv2d(64, 32, kernel_size=(3, 3), stride=(1, 1), padding=(1, 1))
    |        (1): LeakyReLU(negative_slope=0.2, inplace)
    |      )
    |      (conv2): Sequential(
    |        (0): Conv2d(96, 32, kernel_size=(3, 3), stride=(1, 1), padding=(1, 1))
    |        (1): LeakyReLU(negative_slope=0.2, inplace)
    |      )
    |      (conv3): Sequential(
    |        (0): Conv2d(128, 32, kernel_size=(3, 3), stride=(1, 1), padding=(1, 1))
    |        (1): LeakyReLU(negative_slope=0.2, inplace)
    |      )
    |      (conv4): Sequential(
    |        (0): Conv2d(160, 32, kernel_size=(3, 3), stride=(1, 1), padding=(1, 1))
    |        (1): LeakyReLU(negative_slope=0.2, inplace)
    |      )
    |      (conv5): Sequential(
    |        (0): Conv2d(192, 64, kernel_size=(3, 3), stride=(1, 1), padding=(1, 1))
    |      )
    |    )
    |  )
    |  (2): RRDB_WN(
    |    (RDB1): ResidualDenseBlock_5C_WN(
    |      (conv1): Sequential(
    |        (0): Conv2d(64, 32, kernel_size=(3, 3), stride=(1, 1), padding=(1, 1))
    |        (1): LeakyReLU(negative_slope=0.2, inplace)
    |      )
    |      (conv2): Sequential(
    |        (0): Conv2d(96, 32, kernel_size=(3, 3), stride=(1, 1), padding=(1, 1))
    |        (1): LeakyReLU(negative_slope=0.2, inplace)
    |      )
    |      (conv3): Sequential(
    |        (0): Conv2d(128, 32, kernel_size=(3, 3), stride=(1, 1), padding=(1, 1))
    |        (1): LeakyReLU(negative_slope=0.2, inplace)
    |      )
    |      (conv4): Sequential(
    |        (0): Conv2d(160, 32, kernel_size=(3, 3), stride=(1, 1), padding=(1, 1))
    |        (1): LeakyReLU(negative_slope=0.2, inplace)
    |      )
    |      (conv5): Sequential(
    |        (0): Conv2d(192, 64, kernel_size=(3, 3), stride=(1, 1), padding=(1, 1))
    |      )
    |    )
    |    (RDB2): ResidualDenseBlock_5C_WN(
    |      (conv1): Sequential(
    |        (0): Conv2d(64, 32, kernel_size=(3, 3), stride=(1, 1), padding=(1, 1))
    |        (1): LeakyReLU(negative_slope=0.2, inplace)
    |      )
    |      (conv2): Sequential(
    |        (0): Conv2d(96, 32, kernel_size=(3, 3), stride=(1, 1), padding=(1, 1))
    |        (1): LeakyReLU(negative_slope=0.2, inplace)
    |      )
    |      (conv3): Sequential(
    |        (0): Conv2d(128, 32, kernel_size=(3, 3), stride=(1, 1), padding=(1, 1))
    |        (1): LeakyReLU(negative_slope=0.2, inplace)
    |      )
    |      (conv4): Sequential(
    |        (0): Conv2d(160, 32, kernel_size=(3, 3), stride=(1, 1), padding=(1, 1))
    |        (1): LeakyReLU(negative_slope=0.2, inplace)
    |      )
    |      (conv5): Sequential(
    |        (0): Conv2d(192, 64, kernel_size=(3, 3), stride=(1, 1), padding=(1, 1))
    |      )
    |    )
    |    (RDB3): ResidualDenseBlock_5C_WN(
    |      (conv1): Sequential(
    |        (0): Conv2d(64, 32, kernel_size=(3, 3), stride=(1, 1), padding=(1, 1))
    |        (1): LeakyReLU(negative_slope=0.2, inplace)
    |      )
    |      (conv2): Sequential(
    |        (0): Conv2d(96, 32, kernel_size=(3, 3), stride=(1, 1), padding=(1, 1))
    |        (1): LeakyReLU(negative_slope=0.2, inplace)
    |      )
    |      (conv3): Sequential(
    |        (0): Conv2d(128, 32, kernel_size=(3, 3), stride=(1, 1), padding=(1, 1))
    |        (1): LeakyReLU(negative_slope=0.2, inplace)
    |      )
    |      (conv4): Sequential(
    |        (0): Conv2d(160, 32, kernel_size=(3, 3), stride=(1, 1), padding=(1, 1))
    |        (1): LeakyReLU(negative_slope=0.2, inplace)
    |      )
    |      (conv5): Sequential(
    |        (0): Conv2d(192, 64, kernel_size=(3, 3), stride=(1, 1), padding=(1, 1))
    |      )
    |    )
    |  )
    |  (3): RRDB_WN(
    |    (RDB1): ResidualDenseBlock_5C_WN(
    |      (conv1): Sequential(
    |        (0): Conv2d(64, 32, kernel_size=(3, 3), stride=(1, 1), padding=(1, 1))
    |        (1): LeakyReLU(negative_slope=0.2, inplace)
    |      )
    |      (conv2): Sequential(
    |        (0): Conv2d(96, 32, kernel_size=(3, 3), stride=(1, 1), padding=(1, 1))
    |        (1): LeakyReLU(negative_slope=0.2, inplace)
    |      )
    |      (conv3): Sequential(
    |        (0): Conv2d(128, 32, kernel_size=(3, 3), stride=(1, 1), padding=(1, 1))
    |        (1): LeakyReLU(negative_slope=0.2, inplace)
    |      )
    |      (conv4): Sequential(
    |        (0): Conv2d(160, 32, kernel_size=(3, 3), stride=(1, 1), padding=(1, 1))
    |        (1): LeakyReLU(negative_slope=0.2, inplace)
    |      )
    |      (conv5): Sequential(
    |        (0): Conv2d(192, 64, kernel_size=(3, 3), stride=(1, 1), padding=(1, 1))
    |      )
    |    )
    |    (RDB2): ResidualDenseBlock_5C_WN(
    |      (conv1): Sequential(
    |        (0): Conv2d(64, 32, kernel_size=(3, 3), stride=(1, 1), padding=(1, 1))
    |        (1): LeakyReLU(negative_slope=0.2, inplace)
    |      )
    |      (conv2): Sequential(
    |        (0): Conv2d(96, 32, kernel_size=(3, 3), stride=(1, 1), padding=(1, 1))
    |        (1): LeakyReLU(negative_slope=0.2, inplace)
    |      )
    |      (conv3): Sequential(
    |        (0): Conv2d(128, 32, kernel_size=(3, 3), stride=(1, 1), padding=(1, 1))
    |        (1): LeakyReLU(negative_slope=0.2, inplace)
    |      )
    |      (conv4): Sequential(
    |        (0): Conv2d(160, 32, kernel_size=(3, 3), stride=(1, 1), padding=(1, 1))
    |        (1): LeakyReLU(negative_slope=0.2, inplace)
    |      )
    |      (conv5): Sequential(
    |        (0): Conv2d(192, 64, kernel_size=(3, 3), stride=(1, 1), padding=(1, 1))
    |      )
    |    )
    |    (RDB3): ResidualDenseBlock_5C_WN(
    |      (conv1): Sequential(
    |        (0): Conv2d(64, 32, kernel_size=(3, 3), stride=(1, 1), padding=(1, 1))
    |        (1): LeakyReLU(negative_slope=0.2, inplace)
    |      )
    |      (conv2): Sequential(
    |        (0): Conv2d(96, 32, kernel_size=(3, 3), stride=(1, 1), padding=(1, 1))
    |        (1): LeakyReLU(negative_slope=0.2, inplace)
    |      )
    |      (conv3): Sequential(
    |        (0): Conv2d(128, 32, kernel_size=(3, 3), stride=(1, 1), padding=(1, 1))
    |        (1): LeakyReLU(negative_slope=0.2, inplace)
    |      )
    |      (conv4): Sequential(
    |        (0): Conv2d(160, 32, kernel_size=(3, 3), stride=(1, 1), padding=(1, 1))
    |        (1): LeakyReLU(negative_slope=0.2, inplace)
    |      )
    |      (conv5): Sequential(
    |        (0): Conv2d(192, 64, kernel_size=(3, 3), stride=(1, 1), padding=(1, 1))
    |      )
    |    )
    |  )
    |  (4): RRDB_WN(
    |    (RDB1): ResidualDenseBlock_5C_WN(
    |      (conv1): Sequential(
    |        (0): Conv2d(64, 32, kernel_size=(3, 3), stride=(1, 1), padding=(1, 1))
    |        (1): LeakyReLU(negative_slope=0.2, inplace)
    |      )
    |      (conv2): Sequential(
    |        (0): Conv2d(96, 32, kernel_size=(3, 3), stride=(1, 1), padding=(1, 1))
    |        (1): LeakyReLU(negative_slope=0.2, inplace)
    |      )
    |      (conv3): Sequential(
    |        (0): Conv2d(128, 32, kernel_size=(3, 3), stride=(1, 1), padding=(1, 1))
    |        (1): LeakyReLU(negative_slope=0.2, inplace)
    |      )
    |      (conv4): Sequential(
    |        (0): Conv2d(160, 32, kernel_size=(3, 3), stride=(1, 1), padding=(1, 1))
    |        (1): LeakyReLU(negative_slope=0.2, inplace)
    |      )
    |      (conv5): Sequential(
    |        (0): Conv2d(192, 64, kernel_size=(3, 3), stride=(1, 1), padding=(1, 1))
    |      )
    |    )
    |    (RDB2): ResidualDenseBlock_5C_WN(
    |      (conv1): Sequential(
    |        (0): Conv2d(64, 32, kernel_size=(3, 3), stride=(1, 1), padding=(1, 1))
    |        (1): LeakyReLU(negative_slope=0.2, inplace)
    |      )
    |      (conv2): Sequential(
    |        (0): Conv2d(96, 32, kernel_size=(3, 3), stride=(1, 1), padding=(1, 1))
    |        (1): LeakyReLU(negative_slope=0.2, inplace)
    |      )
    |      (conv3): Sequential(
    |        (0): Conv2d(128, 32, kernel_size=(3, 3), stride=(1, 1), padding=(1, 1))
    |        (1): LeakyReLU(negative_slope=0.2, inplace)
    |      )
    |      (conv4): Sequential(
    |        (0): Conv2d(160, 32, kernel_size=(3, 3), stride=(1, 1), padding=(1, 1))
    |        (1): LeakyReLU(negative_slope=0.2, inplace)
    |      )
    |      (conv5): Sequential(
    |        (0): Conv2d(192, 64, kernel_size=(3, 3), stride=(1, 1), padding=(1, 1))
    |      )
    |    )
    |    (RDB3): ResidualDenseBlock_5C_WN(
    |      (conv1): Sequential(
    |        (0): Conv2d(64, 32, kernel_size=(3, 3), stride=(1, 1), padding=(1, 1))
    |        (1): LeakyReLU(negative_slope=0.2, inplace)
    |      )
    |      (conv2): Sequential(
    |        (0): Conv2d(96, 32, kernel_size=(3, 3), stride=(1, 1), padding=(1, 1))
    |        (1): LeakyReLU(negative_slope=0.2, inplace)
    |      )
    |      (conv3): Sequential(
    |        (0): Conv2d(128, 32, kernel_size=(3, 3), stride=(1, 1), padding=(1, 1))
    |        (1): LeakyReLU(negative_slope=0.2, inplace)
    |      )
    |      (conv4): Sequential(
    |        (0): Conv2d(160, 32, kernel_size=(3, 3), stride=(1, 1), padding=(1, 1))
    |        (1): LeakyReLU(negative_slope=0.2, inplace)
    |      )
    |      (conv5): Sequential(
    |        (0): Conv2d(192, 64, kernel_size=(3, 3), stride=(1, 1), padding=(1, 1))
    |      )
    |    )
    |  )
    |  (5): RRDB_WN(
    |    (RDB1): ResidualDenseBlock_5C_WN(
    |      (conv1): Sequential(
    |        (0): Conv2d(64, 32, kernel_size=(3, 3), stride=(1, 1), padding=(1, 1))
    |        (1): LeakyReLU(negative_slope=0.2, inplace)
    |      )
    |      (conv2): Sequential(
    |        (0): Conv2d(96, 32, kernel_size=(3, 3), stride=(1, 1), padding=(1, 1))
    |        (1): LeakyReLU(negative_slope=0.2, inplace)
    |      )
    |      (conv3): Sequential(
    |        (0): Conv2d(128, 32, kernel_size=(3, 3), stride=(1, 1), padding=(1, 1))
    |        (1): LeakyReLU(negative_slope=0.2, inplace)
    |      )
    |      (conv4): Sequential(
    |        (0): Conv2d(160, 32, kernel_size=(3, 3), stride=(1, 1), padding=(1, 1))
    |        (1): LeakyReLU(negative_slope=0.2, inplace)
    |      )
    |      (conv5): Sequential(
    |        (0): Conv2d(192, 64, kernel_size=(3, 3), stride=(1, 1), padding=(1, 1))
    |      )
    |    )
    |    (RDB2): ResidualDenseBlock_5C_WN(
    |      (conv1): Sequential(
    |        (0): Conv2d(64, 32, kernel_size=(3, 3), stride=(1, 1), padding=(1, 1))
    |        (1): LeakyReLU(negative_slope=0.2, inplace)
    |      )
    |      (conv2): Sequential(
    |        (0): Conv2d(96, 32, kernel_size=(3, 3), stride=(1, 1), padding=(1, 1))
    |        (1): LeakyReLU(negative_slope=0.2, inplace)
    |      )
    |      (conv3): Sequential(
    |        (0): Conv2d(128, 32, kernel_size=(3, 3), stride=(1, 1), padding=(1, 1))
    |        (1): LeakyReLU(negative_slope=0.2, inplace)
    |      )
    |      (conv4): Sequential(
    |        (0): Conv2d(160, 32, kernel_size=(3, 3), stride=(1, 1), padding=(1, 1))
    |        (1): LeakyReLU(negative_slope=0.2, inplace)
    |      )
    |      (conv5): Sequential(
    |        (0): Conv2d(192, 64, kernel_size=(3, 3), stride=(1, 1), padding=(1, 1))
    |      )
    |    )
    |    (RDB3): ResidualDenseBlock_5C_WN(
    |      (conv1): Sequential(
    |        (0): Conv2d(64, 32, kernel_size=(3, 3), stride=(1, 1), padding=(1, 1))
    |        (1): LeakyReLU(negative_slope=0.2, inplace)
    |      )
    |      (conv2): Sequential(
    |        (0): Conv2d(96, 32, kernel_size=(3, 3), stride=(1, 1), padding=(1, 1))
    |        (1): LeakyReLU(negative_slope=0.2, inplace)
    |      )
    |      (conv3): Sequential(
    |        (0): Conv2d(128, 32, kernel_size=(3, 3), stride=(1, 1), padding=(1, 1))
    |        (1): LeakyReLU(negative_slope=0.2, inplace)
    |      )
    |      (conv4): Sequential(
    |        (0): Conv2d(160, 32, kernel_size=(3, 3), stride=(1, 1), padding=(1, 1))
    |        (1): LeakyReLU(negative_slope=0.2, inplace)
    |      )
    |      (conv5): Sequential(
    |        (0): Conv2d(192, 64, kernel_size=(3, 3), stride=(1, 1), padding=(1, 1))
    |      )
    |    )
    |  )
    |  (6): RRDB_WN(
    |    (RDB1): ResidualDenseBlock_5C_WN(
    |      (conv1): Sequential(
    |        (0): Conv2d(64, 32, kernel_size=(3, 3), stride=(1, 1), padding=(1, 1))
    |        (1): LeakyReLU(negative_slope=0.2, inplace)
    |      )
    |      (conv2): Sequential(
    |        (0): Conv2d(96, 32, kernel_size=(3, 3), stride=(1, 1), padding=(1, 1))
    |        (1): LeakyReLU(negative_slope=0.2, inplace)
    |      )
    |      (conv3): Sequential(
    |        (0): Conv2d(128, 32, kernel_size=(3, 3), stride=(1, 1), padding=(1, 1))
    |        (1): LeakyReLU(negative_slope=0.2, inplace)
    |      )
    |      (conv4): Sequential(
    |        (0): Conv2d(160, 32, kernel_size=(3, 3), stride=(1, 1), padding=(1, 1))
    |        (1): LeakyReLU(negative_slope=0.2, inplace)
    |      )
    |      (conv5): Sequential(
    |        (0): Conv2d(192, 64, kernel_size=(3, 3), stride=(1, 1), padding=(1, 1))
    |      )
    |    )
    |    (RDB2): ResidualDenseBlock_5C_WN(
    |      (conv1): Sequential(
    |        (0): Conv2d(64, 32, kernel_size=(3, 3), stride=(1, 1), padding=(1, 1))
    |        (1): LeakyReLU(negative_slope=0.2, inplace)
    |      )
    |      (conv2): Sequential(
    |        (0): Conv2d(96, 32, kernel_size=(3, 3), stride=(1, 1), padding=(1, 1))
    |        (1): LeakyReLU(negative_slope=0.2, inplace)
    |      )
    |      (conv3): Sequential(
    |        (0): Conv2d(128, 32, kernel_size=(3, 3), stride=(1, 1), padding=(1, 1))
    |        (1): LeakyReLU(negative_slope=0.2, inplace)
    |      )
    |      (conv4): Sequential(
    |        (0): Conv2d(160, 32, kernel_size=(3, 3), stride=(1, 1), padding=(1, 1))
    |        (1): LeakyReLU(negative_slope=0.2, inplace)
    |      )
    |      (conv5): Sequential(
    |        (0): Conv2d(192, 64, kernel_size=(3, 3), stride=(1, 1), padding=(1, 1))
    |      )
    |    )
    |    (RDB3): ResidualDenseBlock_5C_WN(
    |      (conv1): Sequential(
    |        (0): Conv2d(64, 32, kernel_size=(3, 3), stride=(1, 1), padding=(1, 1))
    |        (1): LeakyReLU(negative_slope=0.2, inplace)
    |      )
    |      (conv2): Sequential(
    |        (0): Conv2d(96, 32, kernel_size=(3, 3), stride=(1, 1), padding=(1, 1))
    |        (1): LeakyReLU(negative_slope=0.2, inplace)
    |      )
    |      (conv3): Sequential(
    |        (0): Conv2d(128, 32, kernel_size=(3, 3), stride=(1, 1), padding=(1, 1))
    |        (1): LeakyReLU(negative_slope=0.2, inplace)
    |      )
    |      (conv4): Sequential(
    |        (0): Conv2d(160, 32, kernel_size=(3, 3), stride=(1, 1), padding=(1, 1))
    |        (1): LeakyReLU(negative_slope=0.2, inplace)
    |      )
    |      (conv5): Sequential(
    |        (0): Conv2d(192, 64, kernel_size=(3, 3), stride=(1, 1), padding=(1, 1))
    |      )
    |    )
    |  )
    |  (7): RRDB_WN(
    |    (RDB1): ResidualDenseBlock_5C_WN(
    |      (conv1): Sequential(
    |        (0): Conv2d(64, 32, kernel_size=(3, 3), stride=(1, 1), padding=(1, 1))
    |        (1): LeakyReLU(negative_slope=0.2, inplace)
    |      )
    |      (conv2): Sequential(
    |        (0): Conv2d(96, 32, kernel_size=(3, 3), stride=(1, 1), padding=(1, 1))
    |        (1): LeakyReLU(negative_slope=0.2, inplace)
    |      )
    |      (conv3): Sequential(
    |        (0): Conv2d(128, 32, kernel_size=(3, 3), stride=(1, 1), padding=(1, 1))
    |        (1): LeakyReLU(negative_slope=0.2, inplace)
    |      )
    |      (conv4): Sequential(
    |        (0): Conv2d(160, 32, kernel_size=(3, 3), stride=(1, 1), padding=(1, 1))
    |        (1): LeakyReLU(negative_slope=0.2, inplace)
    |      )
    |      (conv5): Sequential(
    |        (0): Conv2d(192, 64, kernel_size=(3, 3), stride=(1, 1), padding=(1, 1))
    |      )
    |    )
    |    (RDB2): ResidualDenseBlock_5C_WN(
    |      (conv1): Sequential(
    |        (0): Conv2d(64, 32, kernel_size=(3, 3), stride=(1, 1), padding=(1, 1))
    |        (1): LeakyReLU(negative_slope=0.2, inplace)
    |      )
    |      (conv2): Sequential(
    |        (0): Conv2d(96, 32, kernel_size=(3, 3), stride=(1, 1), padding=(1, 1))
    |        (1): LeakyReLU(negative_slope=0.2, inplace)
    |      )
    |      (conv3): Sequential(
    |        (0): Conv2d(128, 32, kernel_size=(3, 3), stride=(1, 1), padding=(1, 1))
    |        (1): LeakyReLU(negative_slope=0.2, inplace)
    |      )
    |      (conv4): Sequential(
    |        (0): Conv2d(160, 32, kernel_size=(3, 3), stride=(1, 1), padding=(1, 1))
    |        (1): LeakyReLU(negative_slope=0.2, inplace)
    |      )
    |      (conv5): Sequential(
    |        (0): Conv2d(192, 64, kernel_size=(3, 3), stride=(1, 1), padding=(1, 1))
    |      )
    |    )
    |    (RDB3): ResidualDenseBlock_5C_WN(
    |      (conv1): Sequential(
    |        (0): Conv2d(64, 32, kernel_size=(3, 3), stride=(1, 1), padding=(1, 1))
    |        (1): LeakyReLU(negative_slope=0.2, inplace)
    |      )
    |      (conv2): Sequential(
    |        (0): Conv2d(96, 32, kernel_size=(3, 3), stride=(1, 1), padding=(1, 1))
    |        (1): LeakyReLU(negative_slope=0.2, inplace)
    |      )
    |      (conv3): Sequential(
    |        (0): Conv2d(128, 32, kernel_size=(3, 3), stride=(1, 1), padding=(1, 1))
    |        (1): LeakyReLU(negative_slope=0.2, inplace)
    |      )
    |      (conv4): Sequential(
    |        (0): Conv2d(160, 32, kernel_size=(3, 3), stride=(1, 1), padding=(1, 1))
    |        (1): LeakyReLU(negative_slope=0.2, inplace)
    |      )
    |      (conv5): Sequential(
    |        (0): Conv2d(192, 64, kernel_size=(3, 3), stride=(1, 1), padding=(1, 1))
    |      )
    |    )
    |  )
    |  (8): RRDB_WN(
    |    (RDB1): ResidualDenseBlock_5C_WN(
    |      (conv1): Sequential(
    |        (0): Conv2d(64, 32, kernel_size=(3, 3), stride=(1, 1), padding=(1, 1))
    |        (1): LeakyReLU(negative_slope=0.2, inplace)
    |      )
    |      (conv2): Sequential(
    |        (0): Conv2d(96, 32, kernel_size=(3, 3), stride=(1, 1), padding=(1, 1))
    |        (1): LeakyReLU(negative_slope=0.2, inplace)
    |      )
    |      (conv3): Sequential(
    |        (0): Conv2d(128, 32, kernel_size=(3, 3), stride=(1, 1), padding=(1, 1))
    |        (1): LeakyReLU(negative_slope=0.2, inplace)
    |      )
    |      (conv4): Sequential(
    |        (0): Conv2d(160, 32, kernel_size=(3, 3), stride=(1, 1), padding=(1, 1))
    |        (1): LeakyReLU(negative_slope=0.2, inplace)
    |      )
    |      (conv5): Sequential(
    |        (0): Conv2d(192, 64, kernel_size=(3, 3), stride=(1, 1), padding=(1, 1))
    |      )
    |    )
    |    (RDB2): ResidualDenseBlock_5C_WN(
    |      (conv1): Sequential(
    |        (0): Conv2d(64, 32, kernel_size=(3, 3), stride=(1, 1), padding=(1, 1))
    |        (1): LeakyReLU(negative_slope=0.2, inplace)
    |      )
    |      (conv2): Sequential(
    |        (0): Conv2d(96, 32, kernel_size=(3, 3), stride=(1, 1), padding=(1, 1))
    |        (1): LeakyReLU(negative_slope=0.2, inplace)
    |      )
    |      (conv3): Sequential(
    |        (0): Conv2d(128, 32, kernel_size=(3, 3), stride=(1, 1), padding=(1, 1))
    |        (1): LeakyReLU(negative_slope=0.2, inplace)
    |      )
    |      (conv4): Sequential(
    |        (0): Conv2d(160, 32, kernel_size=(3, 3), stride=(1, 1), padding=(1, 1))
    |        (1): LeakyReLU(negative_slope=0.2, inplace)
    |      )
    |      (conv5): Sequential(
    |        (0): Conv2d(192, 64, kernel_size=(3, 3), stride=(1, 1), padding=(1, 1))
    |      )
    |    )
    |    (RDB3): ResidualDenseBlock_5C_WN(
    |      (conv1): Sequential(
    |        (0): Conv2d(64, 32, kernel_size=(3, 3), stride=(1, 1), padding=(1, 1))
    |        (1): LeakyReLU(negative_slope=0.2, inplace)
    |      )
    |      (conv2): Sequential(
    |        (0): Conv2d(96, 32, kernel_size=(3, 3), stride=(1, 1), padding=(1, 1))
    |        (1): LeakyReLU(negative_slope=0.2, inplace)
    |      )
    |      (conv3): Sequential(
    |        (0): Conv2d(128, 32, kernel_size=(3, 3), stride=(1, 1), padding=(1, 1))
    |        (1): LeakyReLU(negative_slope=0.2, inplace)
    |      )
    |      (conv4): Sequential(
    |        (0): Conv2d(160, 32, kernel_size=(3, 3), stride=(1, 1), padding=(1, 1))
    |        (1): LeakyReLU(negative_slope=0.2, inplace)
    |      )
    |      (conv5): Sequential(
    |        (0): Conv2d(192, 64, kernel_size=(3, 3), stride=(1, 1), padding=(1, 1))
    |      )
    |    )
    |  )
    |  (9): RRDB_WN(
    |    (RDB1): ResidualDenseBlock_5C_WN(
    |      (conv1): Sequential(
    |        (0): Conv2d(64, 32, kernel_size=(3, 3), stride=(1, 1), padding=(1, 1))
    |        (1): LeakyReLU(negative_slope=0.2, inplace)
    |      )
    |      (conv2): Sequential(
    |        (0): Conv2d(96, 32, kernel_size=(3, 3), stride=(1, 1), padding=(1, 1))
    |        (1): LeakyReLU(negative_slope=0.2, inplace)
    |      )
    |      (conv3): Sequential(
    |        (0): Conv2d(128, 32, kernel_size=(3, 3), stride=(1, 1), padding=(1, 1))
    |        (1): LeakyReLU(negative_slope=0.2, inplace)
    |      )
    |      (conv4): Sequential(
    |        (0): Conv2d(160, 32, kernel_size=(3, 3), stride=(1, 1), padding=(1, 1))
    |        (1): LeakyReLU(negative_slope=0.2, inplace)
    |      )
    |      (conv5): Sequential(
    |        (0): Conv2d(192, 64, kernel_size=(3, 3), stride=(1, 1), padding=(1, 1))
    |      )
    |    )
    |    (RDB2): ResidualDenseBlock_5C_WN(
    |      (conv1): Sequential(
    |        (0): Conv2d(64, 32, kernel_size=(3, 3), stride=(1, 1), padding=(1, 1))
    |        (1): LeakyReLU(negative_slope=0.2, inplace)
    |      )
    |      (conv2): Sequential(
    |        (0): Conv2d(96, 32, kernel_size=(3, 3), stride=(1, 1), padding=(1, 1))
    |        (1): LeakyReLU(negative_slope=0.2, inplace)
    |      )
    |      (conv3): Sequential(
    |        (0): Conv2d(128, 32, kernel_size=(3, 3), stride=(1, 1), padding=(1, 1))
    |        (1): LeakyReLU(negative_slope=0.2, inplace)
    |      )
    |      (conv4): Sequential(
    |        (0): Conv2d(160, 32, kernel_size=(3, 3), stride=(1, 1), padding=(1, 1))
    |        (1): LeakyReLU(negative_slope=0.2, inplace)
    |      )
    |      (conv5): Sequential(
    |        (0): Conv2d(192, 64, kernel_size=(3, 3), stride=(1, 1), padding=(1, 1))
    |      )
    |    )
    |    (RDB3): ResidualDenseBlock_5C_WN(
    |      (conv1): Sequential(
    |        (0): Conv2d(64, 32, kernel_size=(3, 3), stride=(1, 1), padding=(1, 1))
    |        (1): LeakyReLU(negative_slope=0.2, inplace)
    |      )
    |      (conv2): Sequential(
    |        (0): Conv2d(96, 32, kernel_size=(3, 3), stride=(1, 1), padding=(1, 1))
    |        (1): LeakyReLU(negative_slope=0.2, inplace)
    |      )
    |      (conv3): Sequential(
    |        (0): Conv2d(128, 32, kernel_size=(3, 3), stride=(1, 1), padding=(1, 1))
    |        (1): LeakyReLU(negative_slope=0.2, inplace)
    |      )
    |      (conv4): Sequential(
    |        (0): Conv2d(160, 32, kernel_size=(3, 3), stride=(1, 1), padding=(1, 1))
    |        (1): LeakyReLU(negative_slope=0.2, inplace)
    |      )
    |      (conv5): Sequential(
    |        (0): Conv2d(192, 64, kernel_size=(3, 3), stride=(1, 1), padding=(1, 1))
    |      )
    |    )
    |  )
    |  (10): RRDB_WN(
    |    (RDB1): ResidualDenseBlock_5C_WN(
    |      (conv1): Sequential(
    |        (0): Conv2d(64, 32, kernel_size=(3, 3), stride=(1, 1), padding=(1, 1))
    |        (1): LeakyReLU(negative_slope=0.2, inplace)
    |      )
    |      (conv2): Sequential(
    |        (0): Conv2d(96, 32, kernel_size=(3, 3), stride=(1, 1), padding=(1, 1))
    |        (1): LeakyReLU(negative_slope=0.2, inplace)
    |      )
    |      (conv3): Sequential(
    |        (0): Conv2d(128, 32, kernel_size=(3, 3), stride=(1, 1), padding=(1, 1))
    |        (1): LeakyReLU(negative_slope=0.2, inplace)
    |      )
    |      (conv4): Sequential(
    |        (0): Conv2d(160, 32, kernel_size=(3, 3), stride=(1, 1), padding=(1, 1))
    |        (1): LeakyReLU(negative_slope=0.2, inplace)
    |      )
    |      (conv5): Sequential(
    |        (0): Conv2d(192, 64, kernel_size=(3, 3), stride=(1, 1), padding=(1, 1))
    |      )
    |    )
    |    (RDB2): ResidualDenseBlock_5C_WN(
    |      (conv1): Sequential(
    |        (0): Conv2d(64, 32, kernel_size=(3, 3), stride=(1, 1), padding=(1, 1))
    |        (1): LeakyReLU(negative_slope=0.2, inplace)
    |      )
    |      (conv2): Sequential(
    |        (0): Conv2d(96, 32, kernel_size=(3, 3), stride=(1, 1), padding=(1, 1))
    |        (1): LeakyReLU(negative_slope=0.2, inplace)
    |      )
    |      (conv3): Sequential(
    |        (0): Conv2d(128, 32, kernel_size=(3, 3), stride=(1, 1), padding=(1, 1))
    |        (1): LeakyReLU(negative_slope=0.2, inplace)
    |      )
    |      (conv4): Sequential(
    |        (0): Conv2d(160, 32, kernel_size=(3, 3), stride=(1, 1), padding=(1, 1))
    |        (1): LeakyReLU(negative_slope=0.2, inplace)
    |      )
    |      (conv5): Sequential(
    |        (0): Conv2d(192, 64, kernel_size=(3, 3), stride=(1, 1), padding=(1, 1))
    |      )
    |    )
    |    (RDB3): ResidualDenseBlock_5C_WN(
    |      (conv1): Sequential(
    |        (0): Conv2d(64, 32, kernel_size=(3, 3), stride=(1, 1), padding=(1, 1))
    |        (1): LeakyReLU(negative_slope=0.2, inplace)
    |      )
    |      (conv2): Sequential(
    |        (0): Conv2d(96, 32, kernel_size=(3, 3), stride=(1, 1), padding=(1, 1))
    |        (1): LeakyReLU(negative_slope=0.2, inplace)
    |      )
    |      (conv3): Sequential(
    |        (0): Conv2d(128, 32, kernel_size=(3, 3), stride=(1, 1), padding=(1, 1))
    |        (1): LeakyReLU(negative_slope=0.2, inplace)
    |      )
    |      (conv4): Sequential(
    |        (0): Conv2d(160, 32, kernel_size=(3, 3), stride=(1, 1), padding=(1, 1))
    |        (1): LeakyReLU(negative_slope=0.2, inplace)
    |      )
    |      (conv5): Sequential(
    |        (0): Conv2d(192, 64, kernel_size=(3, 3), stride=(1, 1), padding=(1, 1))
    |      )
    |    )
    |  )
    |  (11): RRDB_WN(
    |    (RDB1): ResidualDenseBlock_5C_WN(
    |      (conv1): Sequential(
    |        (0): Conv2d(64, 32, kernel_size=(3, 3), stride=(1, 1), padding=(1, 1))
    |        (1): LeakyReLU(negative_slope=0.2, inplace)
    |      )
    |      (conv2): Sequential(
    |        (0): Conv2d(96, 32, kernel_size=(3, 3), stride=(1, 1), padding=(1, 1))
    |        (1): LeakyReLU(negative_slope=0.2, inplace)
    |      )
    |      (conv3): Sequential(
    |        (0): Conv2d(128, 32, kernel_size=(3, 3), stride=(1, 1), padding=(1, 1))
    |        (1): LeakyReLU(negative_slope=0.2, inplace)
    |      )
    |      (conv4): Sequential(
    |        (0): Conv2d(160, 32, kernel_size=(3, 3), stride=(1, 1), padding=(1, 1))
    |        (1): LeakyReLU(negative_slope=0.2, inplace)
    |      )
    |      (conv5): Sequential(
    |        (0): Conv2d(192, 64, kernel_size=(3, 3), stride=(1, 1), padding=(1, 1))
    |      )
    |    )
    |    (RDB2): ResidualDenseBlock_5C_WN(
    |      (conv1): Sequential(
    |        (0): Conv2d(64, 32, kernel_size=(3, 3), stride=(1, 1), padding=(1, 1))
    |        (1): LeakyReLU(negative_slope=0.2, inplace)
    |      )
    |      (conv2): Sequential(
    |        (0): Conv2d(96, 32, kernel_size=(3, 3), stride=(1, 1), padding=(1, 1))
    |        (1): LeakyReLU(negative_slope=0.2, inplace)
    |      )
    |      (conv3): Sequential(
    |        (0): Conv2d(128, 32, kernel_size=(3, 3), stride=(1, 1), padding=(1, 1))
    |        (1): LeakyReLU(negative_slope=0.2, inplace)
    |      )
    |      (conv4): Sequential(
    |        (0): Conv2d(160, 32, kernel_size=(3, 3), stride=(1, 1), padding=(1, 1))
    |        (1): LeakyReLU(negative_slope=0.2, inplace)
    |      )
    |      (conv5): Sequential(
    |        (0): Conv2d(192, 64, kernel_size=(3, 3), stride=(1, 1), padding=(1, 1))
    |      )
    |    )
    |    (RDB3): ResidualDenseBlock_5C_WN(
    |      (conv1): Sequential(
    |        (0): Conv2d(64, 32, kernel_size=(3, 3), stride=(1, 1), padding=(1, 1))
    |        (1): LeakyReLU(negative_slope=0.2, inplace)
    |      )
    |      (conv2): Sequential(
    |        (0): Conv2d(96, 32, kernel_size=(3, 3), stride=(1, 1), padding=(1, 1))
    |        (1): LeakyReLU(negative_slope=0.2, inplace)
    |      )
    |      (conv3): Sequential(
    |        (0): Conv2d(128, 32, kernel_size=(3, 3), stride=(1, 1), padding=(1, 1))
    |        (1): LeakyReLU(negative_slope=0.2, inplace)
    |      )
    |      (conv4): Sequential(
    |        (0): Conv2d(160, 32, kernel_size=(3, 3), stride=(1, 1), padding=(1, 1))
    |        (1): LeakyReLU(negative_slope=0.2, inplace)
    |      )
    |      (conv5): Sequential(
    |        (0): Conv2d(192, 64, kernel_size=(3, 3), stride=(1, 1), padding=(1, 1))
    |      )
    |    )
    |  )
    |  (12): RRDB_WN(
    |    (RDB1): ResidualDenseBlock_5C_WN(
    |      (conv1): Sequential(
    |        (0): Conv2d(64, 32, kernel_size=(3, 3), stride=(1, 1), padding=(1, 1))
    |        (1): LeakyReLU(negative_slope=0.2, inplace)
    |      )
    |      (conv2): Sequential(
    |        (0): Conv2d(96, 32, kernel_size=(3, 3), stride=(1, 1), padding=(1, 1))
    |        (1): LeakyReLU(negative_slope=0.2, inplace)
    |      )
    |      (conv3): Sequential(
    |        (0): Conv2d(128, 32, kernel_size=(3, 3), stride=(1, 1), padding=(1, 1))
    |        (1): LeakyReLU(negative_slope=0.2, inplace)
    |      )
    |      (conv4): Sequential(
    |        (0): Conv2d(160, 32, kernel_size=(3, 3), stride=(1, 1), padding=(1, 1))
    |        (1): LeakyReLU(negative_slope=0.2, inplace)
    |      )
    |      (conv5): Sequential(
    |        (0): Conv2d(192, 64, kernel_size=(3, 3), stride=(1, 1), padding=(1, 1))
    |      )
    |    )
    |    (RDB2): ResidualDenseBlock_5C_WN(
    |      (conv1): Sequential(
    |        (0): Conv2d(64, 32, kernel_size=(3, 3), stride=(1, 1), padding=(1, 1))
    |        (1): LeakyReLU(negative_slope=0.2, inplace)
    |      )
    |      (conv2): Sequential(
    |        (0): Conv2d(96, 32, kernel_size=(3, 3), stride=(1, 1), padding=(1, 1))
    |        (1): LeakyReLU(negative_slope=0.2, inplace)
    |      )
    |      (conv3): Sequential(
    |        (0): Conv2d(128, 32, kernel_size=(3, 3), stride=(1, 1), padding=(1, 1))
    |        (1): LeakyReLU(negative_slope=0.2, inplace)
    |      )
    |      (conv4): Sequential(
    |        (0): Conv2d(160, 32, kernel_size=(3, 3), stride=(1, 1), padding=(1, 1))
    |        (1): LeakyReLU(negative_slope=0.2, inplace)
    |      )
    |      (conv5): Sequential(
    |        (0): Conv2d(192, 64, kernel_size=(3, 3), stride=(1, 1), padding=(1, 1))
    |      )
    |    )
    |    (RDB3): ResidualDenseBlock_5C_WN(
    |      (conv1): Sequential(
    |        (0): Conv2d(64, 32, kernel_size=(3, 3), stride=(1, 1), padding=(1, 1))
    |        (1): LeakyReLU(negative_slope=0.2, inplace)
    |      )
    |      (conv2): Sequential(
    |        (0): Conv2d(96, 32, kernel_size=(3, 3), stride=(1, 1), padding=(1, 1))
    |        (1): LeakyReLU(negative_slope=0.2, inplace)
    |      )
    |      (conv3): Sequential(
    |        (0): Conv2d(128, 32, kernel_size=(3, 3), stride=(1, 1), padding=(1, 1))
    |        (1): LeakyReLU(negative_slope=0.2, inplace)
    |      )
    |      (conv4): Sequential(
    |        (0): Conv2d(160, 32, kernel_size=(3, 3), stride=(1, 1), padding=(1, 1))
    |        (1): LeakyReLU(negative_slope=0.2, inplace)
    |      )
    |      (conv5): Sequential(
    |        (0): Conv2d(192, 64, kernel_size=(3, 3), stride=(1, 1), padding=(1, 1))
    |      )
    |    )
    |  )
    |  (13): RRDB_WN(
    |    (RDB1): ResidualDenseBlock_5C_WN(
    |      (conv1): Sequential(
    |        (0): Conv2d(64, 32, kernel_size=(3, 3), stride=(1, 1), padding=(1, 1))
    |        (1): LeakyReLU(negative_slope=0.2, inplace)
    |      )
    |      (conv2): Sequential(
    |        (0): Conv2d(96, 32, kernel_size=(3, 3), stride=(1, 1), padding=(1, 1))
    |        (1): LeakyReLU(negative_slope=0.2, inplace)
    |      )
    |      (conv3): Sequential(
    |        (0): Conv2d(128, 32, kernel_size=(3, 3), stride=(1, 1), padding=(1, 1))
    |        (1): LeakyReLU(negative_slope=0.2, inplace)
    |      )
    |      (conv4): Sequential(
    |        (0): Conv2d(160, 32, kernel_size=(3, 3), stride=(1, 1), padding=(1, 1))
    |        (1): LeakyReLU(negative_slope=0.2, inplace)
    |      )
    |      (conv5): Sequential(
    |        (0): Conv2d(192, 64, kernel_size=(3, 3), stride=(1, 1), padding=(1, 1))
    |      )
    |    )
    |    (RDB2): ResidualDenseBlock_5C_WN(
    |      (conv1): Sequential(
    |        (0): Conv2d(64, 32, kernel_size=(3, 3), stride=(1, 1), padding=(1, 1))
    |        (1): LeakyReLU(negative_slope=0.2, inplace)
    |      )
    |      (conv2): Sequential(
    |        (0): Conv2d(96, 32, kernel_size=(3, 3), stride=(1, 1), padding=(1, 1))
    |        (1): LeakyReLU(negative_slope=0.2, inplace)
    |      )
    |      (conv3): Sequential(
    |        (0): Conv2d(128, 32, kernel_size=(3, 3), stride=(1, 1), padding=(1, 1))
    |        (1): LeakyReLU(negative_slope=0.2, inplace)
    |      )
    |      (conv4): Sequential(
    |        (0): Conv2d(160, 32, kernel_size=(3, 3), stride=(1, 1), padding=(1, 1))
    |        (1): LeakyReLU(negative_slope=0.2, inplace)
    |      )
    |      (conv5): Sequential(
    |        (0): Conv2d(192, 64, kernel_size=(3, 3), stride=(1, 1), padding=(1, 1))
    |      )
    |    )
    |    (RDB3): ResidualDenseBlock_5C_WN(
    |      (conv1): Sequential(
    |        (0): Conv2d(64, 32, kernel_size=(3, 3), stride=(1, 1), padding=(1, 1))
    |        (1): LeakyReLU(negative_slope=0.2, inplace)
    |      )
    |      (conv2): Sequential(
    |        (0): Conv2d(96, 32, kernel_size=(3, 3), stride=(1, 1), padding=(1, 1))
    |        (1): LeakyReLU(negative_slope=0.2, inplace)
    |      )
    |      (conv3): Sequential(
    |        (0): Conv2d(128, 32, kernel_size=(3, 3), stride=(1, 1), padding=(1, 1))
    |        (1): LeakyReLU(negative_slope=0.2, inplace)
    |      )
    |      (conv4): Sequential(
    |        (0): Conv2d(160, 32, kernel_size=(3, 3), stride=(1, 1), padding=(1, 1))
    |        (1): LeakyReLU(negative_slope=0.2, inplace)
    |      )
    |      (conv5): Sequential(
    |        (0): Conv2d(192, 64, kernel_size=(3, 3), stride=(1, 1), padding=(1, 1))
    |      )
    |    )
    |  )
    |  (14): RRDB_WN(
    |    (RDB1): ResidualDenseBlock_5C_WN(
    |      (conv1): Sequential(
    |        (0): Conv2d(64, 32, kernel_size=(3, 3), stride=(1, 1), padding=(1, 1))
    |        (1): LeakyReLU(negative_slope=0.2, inplace)
    |      )
    |      (conv2): Sequential(
    |        (0): Conv2d(96, 32, kernel_size=(3, 3), stride=(1, 1), padding=(1, 1))
    |        (1): LeakyReLU(negative_slope=0.2, inplace)
    |      )
    |      (conv3): Sequential(
    |        (0): Conv2d(128, 32, kernel_size=(3, 3), stride=(1, 1), padding=(1, 1))
    |        (1): LeakyReLU(negative_slope=0.2, inplace)
    |      )
    |      (conv4): Sequential(
    |        (0): Conv2d(160, 32, kernel_size=(3, 3), stride=(1, 1), padding=(1, 1))
    |        (1): LeakyReLU(negative_slope=0.2, inplace)
    |      )
    |      (conv5): Sequential(
    |        (0): Conv2d(192, 64, kernel_size=(3, 3), stride=(1, 1), padding=(1, 1))
    |      )
    |    )
    |    (RDB2): ResidualDenseBlock_5C_WN(
    |      (conv1): Sequential(
    |        (0): Conv2d(64, 32, kernel_size=(3, 3), stride=(1, 1), padding=(1, 1))
    |        (1): LeakyReLU(negative_slope=0.2, inplace)
    |      )
    |      (conv2): Sequential(
    |        (0): Conv2d(96, 32, kernel_size=(3, 3), stride=(1, 1), padding=(1, 1))
    |        (1): LeakyReLU(negative_slope=0.2, inplace)
    |      )
    |      (conv3): Sequential(
    |        (0): Conv2d(128, 32, kernel_size=(3, 3), stride=(1, 1), padding=(1, 1))
    |        (1): LeakyReLU(negative_slope=0.2, inplace)
    |      )
    |      (conv4): Sequential(
    |        (0): Conv2d(160, 32, kernel_size=(3, 3), stride=(1, 1), padding=(1, 1))
    |        (1): LeakyReLU(negative_slope=0.2, inplace)
    |      )
    |      (conv5): Sequential(
    |        (0): Conv2d(192, 64, kernel_size=(3, 3), stride=(1, 1), padding=(1, 1))
    |      )
    |    )
    |    (RDB3): ResidualDenseBlock_5C_WN(
    |      (conv1): Sequential(
    |        (0): Conv2d(64, 32, kernel_size=(3, 3), stride=(1, 1), padding=(1, 1))
    |        (1): LeakyReLU(negative_slope=0.2, inplace)
    |      )
    |      (conv2): Sequential(
    |        (0): Conv2d(96, 32, kernel_size=(3, 3), stride=(1, 1), padding=(1, 1))
    |        (1): LeakyReLU(negative_slope=0.2, inplace)
    |      )
    |      (conv3): Sequential(
    |        (0): Conv2d(128, 32, kernel_size=(3, 3), stride=(1, 1), padding=(1, 1))
    |        (1): LeakyReLU(negative_slope=0.2, inplace)
    |      )
    |      (conv4): Sequential(
    |        (0): Conv2d(160, 32, kernel_size=(3, 3), stride=(1, 1), padding=(1, 1))
    |        (1): LeakyReLU(negative_slope=0.2, inplace)
    |      )
    |      (conv5): Sequential(
    |        (0): Conv2d(192, 64, kernel_size=(3, 3), stride=(1, 1), padding=(1, 1))
    |      )
    |    )
    |  )
    |  (15): RRDB_WN(
    |    (RDB1): ResidualDenseBlock_5C_WN(
    |      (conv1): Sequential(
    |        (0): Conv2d(64, 32, kernel_size=(3, 3), stride=(1, 1), padding=(1, 1))
    |        (1): LeakyReLU(negative_slope=0.2, inplace)
    |      )
    |      (conv2): Sequential(
    |        (0): Conv2d(96, 32, kernel_size=(3, 3), stride=(1, 1), padding=(1, 1))
    |        (1): LeakyReLU(negative_slope=0.2, inplace)
    |      )
    |      (conv3): Sequential(
    |        (0): Conv2d(128, 32, kernel_size=(3, 3), stride=(1, 1), padding=(1, 1))
    |        (1): LeakyReLU(negative_slope=0.2, inplace)
    |      )
    |      (conv4): Sequential(
    |        (0): Conv2d(160, 32, kernel_size=(3, 3), stride=(1, 1), padding=(1, 1))
    |        (1): LeakyReLU(negative_slope=0.2, inplace)
    |      )
    |      (conv5): Sequential(
    |        (0): Conv2d(192, 64, kernel_size=(3, 3), stride=(1, 1), padding=(1, 1))
    |      )
    |    )
    |    (RDB2): ResidualDenseBlock_5C_WN(
    |      (conv1): Sequential(
    |        (0): Conv2d(64, 32, kernel_size=(3, 3), stride=(1, 1), padding=(1, 1))
    |        (1): LeakyReLU(negative_slope=0.2, inplace)
    |      )
    |      (conv2): Sequential(
    |        (0): Conv2d(96, 32, kernel_size=(3, 3), stride=(1, 1), padding=(1, 1))
    |        (1): LeakyReLU(negative_slope=0.2, inplace)
    |      )
    |      (conv3): Sequential(
    |        (0): Conv2d(128, 32, kernel_size=(3, 3), stride=(1, 1), padding=(1, 1))
    |        (1): LeakyReLU(negative_slope=0.2, inplace)
    |      )
    |      (conv4): Sequential(
    |        (0): Conv2d(160, 32, kernel_size=(3, 3), stride=(1, 1), padding=(1, 1))
    |        (1): LeakyReLU(negative_slope=0.2, inplace)
    |      )
    |      (conv5): Sequential(
    |        (0): Conv2d(192, 64, kernel_size=(3, 3), stride=(1, 1), padding=(1, 1))
    |      )
    |    )
    |    (RDB3): ResidualDenseBlock_5C_WN(
    |      (conv1): Sequential(
    |        (0): Conv2d(64, 32, kernel_size=(3, 3), stride=(1, 1), padding=(1, 1))
    |        (1): LeakyReLU(negative_slope=0.2, inplace)
    |      )
    |      (conv2): Sequential(
    |        (0): Conv2d(96, 32, kernel_size=(3, 3), stride=(1, 1), padding=(1, 1))
    |        (1): LeakyReLU(negative_slope=0.2, inplace)
    |      )
    |      (conv3): Sequential(
    |        (0): Conv2d(128, 32, kernel_size=(3, 3), stride=(1, 1), padding=(1, 1))
    |        (1): LeakyReLU(negative_slope=0.2, inplace)
    |      )
    |      (conv4): Sequential(
    |        (0): Conv2d(160, 32, kernel_size=(3, 3), stride=(1, 1), padding=(1, 1))
    |        (1): LeakyReLU(negative_slope=0.2, inplace)
    |      )
    |      (conv5): Sequential(
    |        (0): Conv2d(192, 64, kernel_size=(3, 3), stride=(1, 1), padding=(1, 1))
    |      )
    |    )
    |  )
    |  (16): RRDB_WN(
    |    (RDB1): ResidualDenseBlock_5C_WN(
    |      (conv1): Sequential(
    |        (0): Conv2d(64, 32, kernel_size=(3, 3), stride=(1, 1), padding=(1, 1))
    |        (1): LeakyReLU(negative_slope=0.2, inplace)
    |      )
    |      (conv2): Sequential(
    |        (0): Conv2d(96, 32, kernel_size=(3, 3), stride=(1, 1), padding=(1, 1))
    |        (1): LeakyReLU(negative_slope=0.2, inplace)
    |      )
    |      (conv3): Sequential(
    |        (0): Conv2d(128, 32, kernel_size=(3, 3), stride=(1, 1), padding=(1, 1))
    |        (1): LeakyReLU(negative_slope=0.2, inplace)
    |      )
    |      (conv4): Sequential(
    |        (0): Conv2d(160, 32, kernel_size=(3, 3), stride=(1, 1), padding=(1, 1))
    |        (1): LeakyReLU(negative_slope=0.2, inplace)
    |      )
    |      (conv5): Sequential(
    |        (0): Conv2d(192, 64, kernel_size=(3, 3), stride=(1, 1), padding=(1, 1))
    |      )
    |    )
    |    (RDB2): ResidualDenseBlock_5C_WN(
    |      (conv1): Sequential(
    |        (0): Conv2d(64, 32, kernel_size=(3, 3), stride=(1, 1), padding=(1, 1))
    |        (1): LeakyReLU(negative_slope=0.2, inplace)
    |      )
    |      (conv2): Sequential(
    |        (0): Conv2d(96, 32, kernel_size=(3, 3), stride=(1, 1), padding=(1, 1))
    |        (1): LeakyReLU(negative_slope=0.2, inplace)
    |      )
    |      (conv3): Sequential(
    |        (0): Conv2d(128, 32, kernel_size=(3, 3), stride=(1, 1), padding=(1, 1))
    |        (1): LeakyReLU(negative_slope=0.2, inplace)
    |      )
    |      (conv4): Sequential(
    |        (0): Conv2d(160, 32, kernel_size=(3, 3), stride=(1, 1), padding=(1, 1))
    |        (1): LeakyReLU(negative_slope=0.2, inplace)
    |      )
    |      (conv5): Sequential(
    |        (0): Conv2d(192, 64, kernel_size=(3, 3), stride=(1, 1), padding=(1, 1))
    |      )
    |    )
    |    (RDB3): ResidualDenseBlock_5C_WN(
    |      (conv1): Sequential(
    |        (0): Conv2d(64, 32, kernel_size=(3, 3), stride=(1, 1), padding=(1, 1))
    |        (1): LeakyReLU(negative_slope=0.2, inplace)
    |      )
    |      (conv2): Sequential(
    |        (0): Conv2d(96, 32, kernel_size=(3, 3), stride=(1, 1), padding=(1, 1))
    |        (1): LeakyReLU(negative_slope=0.2, inplace)
    |      )
    |      (conv3): Sequential(
    |        (0): Conv2d(128, 32, kernel_size=(3, 3), stride=(1, 1), padding=(1, 1))
    |        (1): LeakyReLU(negative_slope=0.2, inplace)
    |      )
    |      (conv4): Sequential(
    |        (0): Conv2d(160, 32, kernel_size=(3, 3), stride=(1, 1), padding=(1, 1))
    |        (1): LeakyReLU(negative_slope=0.2, inplace)
    |      )
    |      (conv5): Sequential(
    |        (0): Conv2d(192, 64, kernel_size=(3, 3), stride=(1, 1), padding=(1, 1))
    |      )
    |    )
    |  )
    |  (17): RRDB_WN(
    |    (RDB1): ResidualDenseBlock_5C_WN(
    |      (conv1): Sequential(
    |        (0): Conv2d(64, 32, kernel_size=(3, 3), stride=(1, 1), padding=(1, 1))
    |        (1): LeakyReLU(negative_slope=0.2, inplace)
    |      )
    |      (conv2): Sequential(
    |        (0): Conv2d(96, 32, kernel_size=(3, 3), stride=(1, 1), padding=(1, 1))
    |        (1): LeakyReLU(negative_slope=0.2, inplace)
    |      )
    |      (conv3): Sequential(
    |        (0): Conv2d(128, 32, kernel_size=(3, 3), stride=(1, 1), padding=(1, 1))
    |        (1): LeakyReLU(negative_slope=0.2, inplace)
    |      )
    |      (conv4): Sequential(
    |        (0): Conv2d(160, 32, kernel_size=(3, 3), stride=(1, 1), padding=(1, 1))
    |        (1): LeakyReLU(negative_slope=0.2, inplace)
    |      )
    |      (conv5): Sequential(
    |        (0): Conv2d(192, 64, kernel_size=(3, 3), stride=(1, 1), padding=(1, 1))
    |      )
    |    )
    |    (RDB2): ResidualDenseBlock_5C_WN(
    |      (conv1): Sequential(
    |        (0): Conv2d(64, 32, kernel_size=(3, 3), stride=(1, 1), padding=(1, 1))
    |        (1): LeakyReLU(negative_slope=0.2, inplace)
    |      )
    |      (conv2): Sequential(
    |        (0): Conv2d(96, 32, kernel_size=(3, 3), stride=(1, 1), padding=(1, 1))
    |        (1): LeakyReLU(negative_slope=0.2, inplace)
    |      )
    |      (conv3): Sequential(
    |        (0): Conv2d(128, 32, kernel_size=(3, 3), stride=(1, 1), padding=(1, 1))
    |        (1): LeakyReLU(negative_slope=0.2, inplace)
    |      )
    |      (conv4): Sequential(
    |        (0): Conv2d(160, 32, kernel_size=(3, 3), stride=(1, 1), padding=(1, 1))
    |        (1): LeakyReLU(negative_slope=0.2, inplace)
    |      )
    |      (conv5): Sequential(
    |        (0): Conv2d(192, 64, kernel_size=(3, 3), stride=(1, 1), padding=(1, 1))
    |      )
    |    )
    |    (RDB3): ResidualDenseBlock_5C_WN(
    |      (conv1): Sequential(
    |        (0): Conv2d(64, 32, kernel_size=(3, 3), stride=(1, 1), padding=(1, 1))
    |        (1): LeakyReLU(negative_slope=0.2, inplace)
    |      )
    |      (conv2): Sequential(
    |        (0): Conv2d(96, 32, kernel_size=(3, 3), stride=(1, 1), padding=(1, 1))
    |        (1): LeakyReLU(negative_slope=0.2, inplace)
    |      )
    |      (conv3): Sequential(
    |        (0): Conv2d(128, 32, kernel_size=(3, 3), stride=(1, 1), padding=(1, 1))
    |        (1): LeakyReLU(negative_slope=0.2, inplace)
    |      )
    |      (conv4): Sequential(
    |        (0): Conv2d(160, 32, kernel_size=(3, 3), stride=(1, 1), padding=(1, 1))
    |        (1): LeakyReLU(negative_slope=0.2, inplace)
    |      )
    |      (conv5): Sequential(
    |        (0): Conv2d(192, 64, kernel_size=(3, 3), stride=(1, 1), padding=(1, 1))
    |      )
    |    )
    |  )
    |  (18): RRDB_WN(
    |    (RDB1): ResidualDenseBlock_5C_WN(
    |      (conv1): Sequential(
    |        (0): Conv2d(64, 32, kernel_size=(3, 3), stride=(1, 1), padding=(1, 1))
    |        (1): LeakyReLU(negative_slope=0.2, inplace)
    |      )
    |      (conv2): Sequential(
    |        (0): Conv2d(96, 32, kernel_size=(3, 3), stride=(1, 1), padding=(1, 1))
    |        (1): LeakyReLU(negative_slope=0.2, inplace)
    |      )
    |      (conv3): Sequential(
    |        (0): Conv2d(128, 32, kernel_size=(3, 3), stride=(1, 1), padding=(1, 1))
    |        (1): LeakyReLU(negative_slope=0.2, inplace)
    |      )
    |      (conv4): Sequential(
    |        (0): Conv2d(160, 32, kernel_size=(3, 3), stride=(1, 1), padding=(1, 1))
    |        (1): LeakyReLU(negative_slope=0.2, inplace)
    |      )
    |      (conv5): Sequential(
    |        (0): Conv2d(192, 64, kernel_size=(3, 3), stride=(1, 1), padding=(1, 1))
    |      )
    |    )
    |    (RDB2): ResidualDenseBlock_5C_WN(
    |      (conv1): Sequential(
    |        (0): Conv2d(64, 32, kernel_size=(3, 3), stride=(1, 1), padding=(1, 1))
    |        (1): LeakyReLU(negative_slope=0.2, inplace)
    |      )
    |      (conv2): Sequential(
    |        (0): Conv2d(96, 32, kernel_size=(3, 3), stride=(1, 1), padding=(1, 1))
    |        (1): LeakyReLU(negative_slope=0.2, inplace)
    |      )
    |      (conv3): Sequential(
    |        (0): Conv2d(128, 32, kernel_size=(3, 3), stride=(1, 1), padding=(1, 1))
    |        (1): LeakyReLU(negative_slope=0.2, inplace)
    |      )
    |      (conv4): Sequential(
    |        (0): Conv2d(160, 32, kernel_size=(3, 3), stride=(1, 1), padding=(1, 1))
    |        (1): LeakyReLU(negative_slope=0.2, inplace)
    |      )
    |      (conv5): Sequential(
    |        (0): Conv2d(192, 64, kernel_size=(3, 3), stride=(1, 1), padding=(1, 1))
    |      )
    |    )
    |    (RDB3): ResidualDenseBlock_5C_WN(
    |      (conv1): Sequential(
    |        (0): Conv2d(64, 32, kernel_size=(3, 3), stride=(1, 1), padding=(1, 1))
    |        (1): LeakyReLU(negative_slope=0.2, inplace)
    |      )
    |      (conv2): Sequential(
    |        (0): Conv2d(96, 32, kernel_size=(3, 3), stride=(1, 1), padding=(1, 1))
    |        (1): LeakyReLU(negative_slope=0.2, inplace)
    |      )
    |      (conv3): Sequential(
    |        (0): Conv2d(128, 32, kernel_size=(3, 3), stride=(1, 1), padding=(1, 1))
    |        (1): LeakyReLU(negative_slope=0.2, inplace)
    |      )
    |      (conv4): Sequential(
    |        (0): Conv2d(160, 32, kernel_size=(3, 3), stride=(1, 1), padding=(1, 1))
    |        (1): LeakyReLU(negative_slope=0.2, inplace)
    |      )
    |      (conv5): Sequential(
    |        (0): Conv2d(192, 64, kernel_size=(3, 3), stride=(1, 1), padding=(1, 1))
    |      )
    |    )
    |  )
    |  (19): RRDB_WN(
    |    (RDB1): ResidualDenseBlock_5C_WN(
    |      (conv1): Sequential(
    |        (0): Conv2d(64, 32, kernel_size=(3, 3), stride=(1, 1), padding=(1, 1))
    |        (1): LeakyReLU(negative_slope=0.2, inplace)
    |      )
    |      (conv2): Sequential(
    |        (0): Conv2d(96, 32, kernel_size=(3, 3), stride=(1, 1), padding=(1, 1))
    |        (1): LeakyReLU(negative_slope=0.2, inplace)
    |      )
    |      (conv3): Sequential(
    |        (0): Conv2d(128, 32, kernel_size=(3, 3), stride=(1, 1), padding=(1, 1))
    |        (1): LeakyReLU(negative_slope=0.2, inplace)
    |      )
    |      (conv4): Sequential(
    |        (0): Conv2d(160, 32, kernel_size=(3, 3), stride=(1, 1), padding=(1, 1))
    |        (1): LeakyReLU(negative_slope=0.2, inplace)
    |      )
    |      (conv5): Sequential(
    |        (0): Conv2d(192, 64, kernel_size=(3, 3), stride=(1, 1), padding=(1, 1))
    |      )
    |    )
    |    (RDB2): ResidualDenseBlock_5C_WN(
    |      (conv1): Sequential(
    |        (0): Conv2d(64, 32, kernel_size=(3, 3), stride=(1, 1), padding=(1, 1))
    |        (1): LeakyReLU(negative_slope=0.2, inplace)
    |      )
    |      (conv2): Sequential(
    |        (0): Conv2d(96, 32, kernel_size=(3, 3), stride=(1, 1), padding=(1, 1))
    |        (1): LeakyReLU(negative_slope=0.2, inplace)
    |      )
    |      (conv3): Sequential(
    |        (0): Conv2d(128, 32, kernel_size=(3, 3), stride=(1, 1), padding=(1, 1))
    |        (1): LeakyReLU(negative_slope=0.2, inplace)
    |      )
    |      (conv4): Sequential(
    |        (0): Conv2d(160, 32, kernel_size=(3, 3), stride=(1, 1), padding=(1, 1))
    |        (1): LeakyReLU(negative_slope=0.2, inplace)
    |      )
    |      (conv5): Sequential(
    |        (0): Conv2d(192, 64, kernel_size=(3, 3), stride=(1, 1), padding=(1, 1))
    |      )
    |    )
    |    (RDB3): ResidualDenseBlock_5C_WN(
    |      (conv1): Sequential(
    |        (0): Conv2d(64, 32, kernel_size=(3, 3), stride=(1, 1), padding=(1, 1))
    |        (1): LeakyReLU(negative_slope=0.2, inplace)
    |      )
    |      (conv2): Sequential(
    |        (0): Conv2d(96, 32, kernel_size=(3, 3), stride=(1, 1), padding=(1, 1))
    |        (1): LeakyReLU(negative_slope=0.2, inplace)
    |      )
    |      (conv3): Sequential(
    |        (0): Conv2d(128, 32, kernel_size=(3, 3), stride=(1, 1), padding=(1, 1))
    |        (1): LeakyReLU(negative_slope=0.2, inplace)
    |      )
    |      (conv4): Sequential(
    |        (0): Conv2d(160, 32, kernel_size=(3, 3), stride=(1, 1), padding=(1, 1))
    |        (1): LeakyReLU(negative_slope=0.2, inplace)
    |      )
    |      (conv5): Sequential(
    |        (0): Conv2d(192, 64, kernel_size=(3, 3), stride=(1, 1), padding=(1, 1))
    |      )
    |    )
    |  )
    |  (20): RRDB_WN(
    |    (RDB1): ResidualDenseBlock_5C_WN(
    |      (conv1): Sequential(
    |        (0): Conv2d(64, 32, kernel_size=(3, 3), stride=(1, 1), padding=(1, 1))
    |        (1): LeakyReLU(negative_slope=0.2, inplace)
    |      )
    |      (conv2): Sequential(
    |        (0): Conv2d(96, 32, kernel_size=(3, 3), stride=(1, 1), padding=(1, 1))
    |        (1): LeakyReLU(negative_slope=0.2, inplace)
    |      )
    |      (conv3): Sequential(
    |        (0): Conv2d(128, 32, kernel_size=(3, 3), stride=(1, 1), padding=(1, 1))
    |        (1): LeakyReLU(negative_slope=0.2, inplace)
    |      )
    |      (conv4): Sequential(
    |        (0): Conv2d(160, 32, kernel_size=(3, 3), stride=(1, 1), padding=(1, 1))
    |        (1): LeakyReLU(negative_slope=0.2, inplace)
    |      )
    |      (conv5): Sequential(
    |        (0): Conv2d(192, 64, kernel_size=(3, 3), stride=(1, 1), padding=(1, 1))
    |      )
    |    )
    |    (RDB2): ResidualDenseBlock_5C_WN(
    |      (conv1): Sequential(
    |        (0): Conv2d(64, 32, kernel_size=(3, 3), stride=(1, 1), padding=(1, 1))
    |        (1): LeakyReLU(negative_slope=0.2, inplace)
    |      )
    |      (conv2): Sequential(
    |        (0): Conv2d(96, 32, kernel_size=(3, 3), stride=(1, 1), padding=(1, 1))
    |        (1): LeakyReLU(negative_slope=0.2, inplace)
    |      )
    |      (conv3): Sequential(
    |        (0): Conv2d(128, 32, kernel_size=(3, 3), stride=(1, 1), padding=(1, 1))
    |        (1): LeakyReLU(negative_slope=0.2, inplace)
    |      )
    |      (conv4): Sequential(
    |        (0): Conv2d(160, 32, kernel_size=(3, 3), stride=(1, 1), padding=(1, 1))
    |        (1): LeakyReLU(negative_slope=0.2, inplace)
    |      )
    |      (conv5): Sequential(
    |        (0): Conv2d(192, 64, kernel_size=(3, 3), stride=(1, 1), padding=(1, 1))
    |      )
    |    )
    |    (RDB3): ResidualDenseBlock_5C_WN(
    |      (conv1): Sequential(
    |        (0): Conv2d(64, 32, kernel_size=(3, 3), stride=(1, 1), padding=(1, 1))
    |        (1): LeakyReLU(negative_slope=0.2, inplace)
    |      )
    |      (conv2): Sequential(
    |        (0): Conv2d(96, 32, kernel_size=(3, 3), stride=(1, 1), padding=(1, 1))
    |        (1): LeakyReLU(negative_slope=0.2, inplace)
    |      )
    |      (conv3): Sequential(
    |        (0): Conv2d(128, 32, kernel_size=(3, 3), stride=(1, 1), padding=(1, 1))
    |        (1): LeakyReLU(negative_slope=0.2, inplace)
    |      )
    |      (conv4): Sequential(
    |        (0): Conv2d(160, 32, kernel_size=(3, 3), stride=(1, 1), padding=(1, 1))
    |        (1): LeakyReLU(negative_slope=0.2, inplace)
    |      )
    |      (conv5): Sequential(
    |        (0): Conv2d(192, 64, kernel_size=(3, 3), stride=(1, 1), padding=(1, 1))
    |      )
    |    )
    |  )
    |  (21): RRDB_WN(
    |    (RDB1): ResidualDenseBlock_5C_WN(
    |      (conv1): Sequential(
    |        (0): Conv2d(64, 32, kernel_size=(3, 3), stride=(1, 1), padding=(1, 1))
    |        (1): LeakyReLU(negative_slope=0.2, inplace)
    |      )
    |      (conv2): Sequential(
    |        (0): Conv2d(96, 32, kernel_size=(3, 3), stride=(1, 1), padding=(1, 1))
    |        (1): LeakyReLU(negative_slope=0.2, inplace)
    |      )
    |      (conv3): Sequential(
    |        (0): Conv2d(128, 32, kernel_size=(3, 3), stride=(1, 1), padding=(1, 1))
    |        (1): LeakyReLU(negative_slope=0.2, inplace)
    |      )
    |      (conv4): Sequential(
    |        (0): Conv2d(160, 32, kernel_size=(3, 3), stride=(1, 1), padding=(1, 1))
    |        (1): LeakyReLU(negative_slope=0.2, inplace)
    |      )
    |      (conv5): Sequential(
    |        (0): Conv2d(192, 64, kernel_size=(3, 3), stride=(1, 1), padding=(1, 1))
    |      )
    |    )
    |    (RDB2): ResidualDenseBlock_5C_WN(
    |      (conv1): Sequential(
    |        (0): Conv2d(64, 32, kernel_size=(3, 3), stride=(1, 1), padding=(1, 1))
    |        (1): LeakyReLU(negative_slope=0.2, inplace)
    |      )
    |      (conv2): Sequential(
    |        (0): Conv2d(96, 32, kernel_size=(3, 3), stride=(1, 1), padding=(1, 1))
    |        (1): LeakyReLU(negative_slope=0.2, inplace)
    |      )
    |      (conv3): Sequential(
    |        (0): Conv2d(128, 32, kernel_size=(3, 3), stride=(1, 1), padding=(1, 1))
    |        (1): LeakyReLU(negative_slope=0.2, inplace)
    |      )
    |      (conv4): Sequential(
    |        (0): Conv2d(160, 32, kernel_size=(3, 3), stride=(1, 1), padding=(1, 1))
    |        (1): LeakyReLU(negative_slope=0.2, inplace)
    |      )
    |      (conv5): Sequential(
    |        (0): Conv2d(192, 64, kernel_size=(3, 3), stride=(1, 1), padding=(1, 1))
    |      )
    |    )
    |    (RDB3): ResidualDenseBlock_5C_WN(
    |      (conv1): Sequential(
    |        (0): Conv2d(64, 32, kernel_size=(3, 3), stride=(1, 1), padding=(1, 1))
    |        (1): LeakyReLU(negative_slope=0.2, inplace)
    |      )
    |      (conv2): Sequential(
    |        (0): Conv2d(96, 32, kernel_size=(3, 3), stride=(1, 1), padding=(1, 1))
    |        (1): LeakyReLU(negative_slope=0.2, inplace)
    |      )
    |      (conv3): Sequential(
    |        (0): Conv2d(128, 32, kernel_size=(3, 3), stride=(1, 1), padding=(1, 1))
    |        (1): LeakyReLU(negative_slope=0.2, inplace)
    |      )
    |      (conv4): Sequential(
    |        (0): Conv2d(160, 32, kernel_size=(3, 3), stride=(1, 1), padding=(1, 1))
    |        (1): LeakyReLU(negative_slope=0.2, inplace)
    |      )
    |      (conv5): Sequential(
    |        (0): Conv2d(192, 64, kernel_size=(3, 3), stride=(1, 1), padding=(1, 1))
    |      )
    |    )
    |  )
    |  (22): RRDB_WN(
    |    (RDB1): ResidualDenseBlock_5C_WN(
    |      (conv1): Sequential(
    |        (0): Conv2d(64, 32, kernel_size=(3, 3), stride=(1, 1), padding=(1, 1))
    |        (1): LeakyReLU(negative_slope=0.2, inplace)
    |      )
    |      (conv2): Sequential(
    |        (0): Conv2d(96, 32, kernel_size=(3, 3), stride=(1, 1), padding=(1, 1))
    |        (1): LeakyReLU(negative_slope=0.2, inplace)
    |      )
    |      (conv3): Sequential(
    |        (0): Conv2d(128, 32, kernel_size=(3, 3), stride=(1, 1), padding=(1, 1))
    |        (1): LeakyReLU(negative_slope=0.2, inplace)
    |      )
    |      (conv4): Sequential(
    |        (0): Conv2d(160, 32, kernel_size=(3, 3), stride=(1, 1), padding=(1, 1))
    |        (1): LeakyReLU(negative_slope=0.2, inplace)
    |      )
    |      (conv5): Sequential(
    |        (0): Conv2d(192, 64, kernel_size=(3, 3), stride=(1, 1), padding=(1, 1))
    |      )
    |    )
    |    (RDB2): ResidualDenseBlock_5C_WN(
    |      (conv1): Sequential(
    |        (0): Conv2d(64, 32, kernel_size=(3, 3), stride=(1, 1), padding=(1, 1))
    |        (1): LeakyReLU(negative_slope=0.2, inplace)
    |      )
    |      (conv2): Sequential(
    |        (0): Conv2d(96, 32, kernel_size=(3, 3), stride=(1, 1), padding=(1, 1))
    |        (1): LeakyReLU(negative_slope=0.2, inplace)
    |      )
    |      (conv3): Sequential(
    |        (0): Conv2d(128, 32, kernel_size=(3, 3), stride=(1, 1), padding=(1, 1))
    |        (1): LeakyReLU(negative_slope=0.2, inplace)
    |      )
    |      (conv4): Sequential(
    |        (0): Conv2d(160, 32, kernel_size=(3, 3), stride=(1, 1), padding=(1, 1))
    |        (1): LeakyReLU(negative_slope=0.2, inplace)
    |      )
    |      (conv5): Sequential(
    |        (0): Conv2d(192, 64, kernel_size=(3, 3), stride=(1, 1), padding=(1, 1))
    |      )
    |    )
    |    (RDB3): ResidualDenseBlock_5C_WN(
    |      (conv1): Sequential(
    |        (0): Conv2d(64, 32, kernel_size=(3, 3), stride=(1, 1), padding=(1, 1))
    |        (1): LeakyReLU(negative_slope=0.2, inplace)
    |      )
    |      (conv2): Sequential(
    |        (0): Conv2d(96, 32, kernel_size=(3, 3), stride=(1, 1), padding=(1, 1))
    |        (1): LeakyReLU(negative_slope=0.2, inplace)
    |      )
    |      (conv3): Sequential(
    |        (0): Conv2d(128, 32, kernel_size=(3, 3), stride=(1, 1), padding=(1, 1))
    |        (1): LeakyReLU(negative_slope=0.2, inplace)
    |      )
    |      (conv4): Sequential(
    |        (0): Conv2d(160, 32, kernel_size=(3, 3), stride=(1, 1), padding=(1, 1))
    |        (1): LeakyReLU(negative_slope=0.2, inplace)
    |      )
    |      (conv5): Sequential(
    |        (0): Conv2d(192, 64, kernel_size=(3, 3), stride=(1, 1), padding=(1, 1))
    |      )
    |    )
    |  )
    |  (23): Conv2d(64, 64, kernel_size=(3, 3), stride=(1, 1), padding=(1, 1))
    |  (24): Upsample(scale_factor=2, mode=nearest)
    |  (25): Conv2d(64, 64, kernel_size=(3, 3), stride=(1, 1), padding=(1, 1))
    |  (26): LeakyReLU(negative_slope=0.2, inplace)
    |  (27): Upsample(scale_factor=2, mode=nearest)
    |  (28): Conv2d(64, 64, kernel_size=(3, 3), stride=(1, 1), padding=(1, 1))
    |  (29): LeakyReLU(negative_slope=0.2, inplace)
    |)
    (2): Conv2d(64, 64, kernel_size=(3, 3), stride=(1, 1), padding=(1, 1))
    (3): LeakyReLU(negative_slope=0.2, inplace)
    (4): Conv2d(64, 3, kernel_size=(3, 3), stride=(1, 1), padding=(1, 1))
  )
)
19-03-02 23:04:48.419 - INFO: Model [SRRaGANModel] is created.
19-03-02 23:04:48.419 - INFO: 
Testing [ESRGAN_WN_x4_DF2K]...
19-03-02 23:04:53.017 - INFO: 201                  - PSNR: 21.779808 dB; SSIM: 0.562547; PSNR_Y: 23.209222 dB; SSIM_Y: 0.587462.
19-03-02 23:04:56.022 - INFO: 202                  - PSNR: 18.657915 dB; SSIM: 0.398504; PSNR_Y: 19.881765 dB; SSIM_Y: 0.417067.
…
